logs/promp_td3/Ant-v0_2/best_model.npy.npz (npz, 584 bytes, 1 tensors)

arr_0 f4 [10, 8]
00000000: ce62 203f d17c 9cbe f2d3 8f3c 5927 62bd
00000010: be0b 4dbe d1be f9bd 52e3 01bd 986a b0bb
00000020: 7c9f 323f 46cb b3be 9bbf 9f3d 02e0 ab3e
00000030: 582c 73be fb7a 973c c886 81be bdd3 cd3d
00000040: be03 223f 2a22 c3be b64e 8d3e 6ce5 003f
00000050: cb41 6abe a642 0e3e 7607 83be 8a84 5b3e
00000060: 8d93 813e 02c6 cebe 1b3a 9f3e a13a 543f
00000070: 1139 02be 7dc0 7d3e ebaf 7dbe 95aa 053e
00000080: 345f 113e 3017 e4be cf35 a83e 3c16 663f
00000090: 4547 8fbd 35be df3e aabb 97be bde2 033e
000000a0: bb28 b43d 1aec bdbe e44b 9f3e d3d6 623f
000000b0: da92 bdbd 6c45 1f3f f409 9fbe a94c e93d
000000c0: 6f55 4b3d 0c38 b6be d114 8b3e ff1b 5f3f
000000d0: 79ce 0cbe 7ea9 1e3f da2b 8fbe 886f c93d
000000e0: 21c0 923d dffd cfbe ecd0 1b3e b6c7 263f
000000f0: fd59 8dbe d029 2d3f ecb3 a0be ac1f 0c3e
00000100: d01c ea3d 0cf1 ebbe 7897 8f3d c29f 093f
00000110: ba31 aebe ce4c 163f 1ed4 aebe 7f7e 123e
00000120: 4dff 0d3e df51 eabe 933f 3e3d 3b07 fc3e
00000130: d150 b5be a0ee 003f 12cb b3be 6e0d 113e
0.62650764 -0.30563977 0.017557118 -0.055213306 -0.2002401 -0.121945985 -0.03171093 -0.0053838007
0.69774604 -0.35116023 0.07800218 0.33569342 -0.23747385 0.018491259 -0.25298142 0.100501515
0.6328696 -0.38112003 0.27599114 0.5035007 -0.2287666 0.13892612 -0.2559163 0.21437278
0.25307885 -0.40385443 0.31099018 0.8290196 -0.12717082 0.2478046 -0.24774139 0.13053353
0.14196473 -0.4454894 0.32853553 0.89877677 -0.069960155 0.43699804 -0.29635364 0.12879463
0.08796831 -0.37094194 0.31112587 0.88609046 -0.09256525 0.62215304 -0.3106228 0.11391575
0.049642023 -0.35589635 0.2716432 0.87152094 -0.13750638 0.61977375 -0.27963144 0.09835726
0.07165552 -0.40623376 0.15216416 0.65148485 -0.27607718 0.67641926 -0.3138727 0.13683957
0.11431277 -0.46082342 0.07011312 0.53759396 -0.34022313 0.58710945 -0.34146208 0.14306067
0.13866921 -0.45765588 0.046447348 0.49224266 -0.3541322 0.5036411 -0.35115868 0.1416528
