plots/data/episodic_td3/dmcCheetahDense-v0_111/best_model.npy.npz (npz, 744 bytes, 1 tensors)

arr_0 f4 [20, 6]
1.1285844 4.949252 4.4549932 -2.249328 -1.2626643 1.573853 0.5770618 4.8064675
4.2406034 -2.318831 -1.7011344 1.8634894 0.5694314 4.0909314 3.9427118 -2.3425753
-2.3472176 2.6934896 -0.5867516 1.9641255 2.3320775 -1.0507479 -1.8856635 2.6854987
-0.42098135 -0.7966064 0.13586694 0.6415894 -0.4773383 -2.1564584 -0.9767965 -1.2402171
-0.37551612 1.1817151 0.40270707 -2.7690399 -1.173047 -0.8218855 -0.34416848 0.49860987
0.09766485 -2.6003377 -0.44918028 0.34739718 0.81064045 -0.84516925 -0.9337736 -1.8615378
0.85268074 2.1600473 -0.51655173 -2.4143982 -0.9372334 -1.8243055 1.3698615 2.6418674
-1.3940043 -2.622873 -2.3943253 -1.3215177 1.8914281 2.9992387 -2.5546107 -3.3513958
-3.0858781 0.9067321 2.6512291 2.4528081 -0.905016 -1.713368 -3.403165 1.9967915
1.8288144 1.3664345 -0.29029244 0.90121204 -1.9438514 2.9457228 0.6820845 1.3958966
1.1361436 2.8931594 -0.80579525 1.7555406 0.57761955 1.2333295 2.1939175 3.0637896
0.92676413 0.9678895 0.99394333 -0.7703882 2.98342 3.013307 5.2711344 -0.3619201
-0.29736528 -3.7139199 -1.5070212 2.732116 5.0504465 -2.0111315 -0.37305734 -4.255185
-3.3761153 3.0705016 2.6683898 -0.08161726 -0.42490968 -4.3885746 -4.121696 1.1241981
1.8972081 0.5512183 -0.77101076 -4.2812786 -4.3225527 -0.2338393 1.6237062 0.9557055
00000000: 7475 903f 4660 9e40 4e8f 8e40 fdf4 0fc0
00000010: fc9e a1bf 0474 c93f 52ba 133f 95ce 9940
00000020: 06b3 8740 ba67 14c0 c6be d9bf d286 ee3f
00000030: 42c6 113f e9e8 8240 6455 7c40 c1ec 15c0
00000040: d038 16c0 2262 2c40 5a35 16bf 7768 fb3f
00000050: c240 1540 e87e 86bf 6c5d f1bf 36df 2b40
00000060: de8a d7be 66ee 4bbf b420 0b3e 343f 243f
00000070: b065 f4be 6a03 0ac0 560f 7abf 6fbf 9ebf
00000080: a643 c0be 7142 973f 9f2f ce3e f337 31c0
00000090: 6726 96bf 1767 52bf da36 b0be cb49 ff3e
000000a0: 8204 c83d ef6b 26c0 f5fa e5be 0bde b13e
000000b0: 2286 4f3f 035d 58bf c90b 6fbf df46 eebf
000000c0: 4949 5a3f 373e 0a40 bc3c 04bf 8085 1ac0
000000d0: 87ee 6fbf d882 e9bf 9f57 af3f 5b14 2940
000000e0: bc6e b2bf 27dd 27c0 a03c 19c0 7e27 a9bf
000000f0: 511a f23f 87f3 3f40 be7e 23c0 457d 56c0
00000100: 077f 45c0 981f 683f bdad 2940 cffa 1c40
00000110: 21af 67bf a54f dbbf 75cd 59c0 dd96 ff3f
00000120: 9716 ea3f 53e7 ae3f 36a1 94be d5b5 663f
00000130: 1fd0 f8bf b986 3c40 179d 2e3f bdac b23f
00000140: 276d 913f 8629 3940 9948 4ebf 8eb5 e03f
00000150: e0de 133f bedd 9d3f 2569 0c40 2115 4440
00000160: 6a40 6d3f 9bc7 773f 1273 7e3f 2938 45bf
00000170: 5af0 3e40 06da 4040 22ad a840 974d b9be
00000180: 4340 98be ddb0 6dc0 12e6 c0bf fdda 2e40
00000190: 429d a140 61b6 00c0 5f01 bfbe 7a2a 88c0
000001a0: 4612 58c0 1983 4440 e6c6 2a40 f326 a7bd
000001b0: c38d d9be 346f 8cc0 efe4 83c0 b9e5 8f3f
000001c0: b7d7 f23f a41c 0d3f f660 45bf 3c00 89c0
000001d0: 5a52 8ac0 9273 6fbe 9bd5 cf3f 1ea9 743f
