logs/promp_td3/FetchReacher-v0_94/best_model.npy (npy, 728 bytes, 1 tensors)

array f4 [50, 3]
-0.01840403 -0.025822155 0.024252806 -0.01846433 -0.025642158 0.0243611 -0.018591087 -0.025503527
0.024474923 -0.018779313 -0.025397124 0.024594115 -0.019011635 -0.025315877 0.024714373 -0.019254155
-0.025256598 0.024826024 -0.019461567 -0.025221135 0.024916124 -0.019592762 -0.025216695 0.024971673
-0.019628957 -0.025253907 0.024981372 -0.01957999 -0.025343426 0.024935812 -0.019478485 -0.025491577
0.024828695 -0.019367337 -0.025697848 0.024657084 -0.01928799 -0.025954466 0.0244474 -0.01926919
-0.02625326 0.024161533 -0.019327695 -0.026580928 0.023831781 -0.01946714 -0.026921783 0.023473611
-0.019681107 -0.027254833 0.023106156 -0.01995574 -0.02755654 0.02274207 -0.020272596 -0.027807573
0.022379005 -0.020610463 -0.027999384 0.021989051 -0.020947548 -0.028134339 0.02150792 -0.021261588
-0.028221613 0.020820599 -0.02152874 -0.028273156 0.019734062 -0.021721713 -0.028300887 0.0179374
-0.02180573 -0.028315183 0.014985015 -0.02173784 -0.028321296 0.010467104 -0.02147176 -0.028312849
0.0045828824 -0.020927094 -0.028280081 -0.0015208084 -0.01991713 -0.028224597 -0.0067359386 -0.018143194
-0.0281531 -0.010760505 -0.015428078 -0.028069388 -0.013776048 -0.012029648 -0.02797444 -0.016050043
-0.008305714 -0.02786995 -0.017795859 -0.0044194707 -0.027758569 -0.01915439 -0.0005066448 -0.027643822
-0.020215103 0.0032542725 -0.027529411 -0.021038776 0.0066554 -0.027418386 -0.021670034 0.009501277
-0.027313234 -0.022143455 0.011704427 -0.027215792 -0.022486495 0.013313704 -0.027128093 -0.022722086
0.014448553 -0.027052552 -0.02287001 0.015229071 -0.026992261 -0.022947632 0.015748547 -0.02695166
-0.022970103 0.016072096 -0.026936142 -0.022950316 0.01624163 -0.026951883 -0.022899106 0.016281294
-0.027006127 -0.022825634 0.016201178 -0.027106062 -0.022737037 0.015998097 -0.027258912 -0.022639517
0.015654596 -0.027471334 -0.022537708 0.015134972 -0.027748602 -0.022435207
00000000: 0cc4 96bc fc88 d3bc d2ad c63c 8242 97bc
00000010: 810f d2bc ee90 c73c 564c 98bc c6ec d0bc
00000020: a27f c83c 13d7 99bc a10d d0bc 9979 c93c
00000030: 4abe 9bbc 3e63 cfbc cc75 ca3c e4ba 9dbc
00000040: ede6 cebc f25f cb3c dd6d 9fbc 8e9c cebc
00000050: e61c cc3c 0081 a0bc 3e93 cebc 6591 cc3c
00000060: e8cc a0bc 48e1 cebc bca5 cc3c 3766 a0bc
00000070: 049d cfbc 3046 cc3c 5891 9fbc b6d3 d0bc
00000080: 8c65 cb3c 40a8 9ebc 4b84 d2bc a7fd c93c
00000090: d901 9ebc 769e d4bc ea45 c83c 6cda 9dbc
000000a0: 1411 d7bc 68ee c53c 1d55 9ebc 3fc0 d9bc
000000b0: de3a c33c 8d79 9fbc 128b dcbc bb4b c03c
000000c0: 463a a1bc 8745 dfbc 1f49 bd3c 387a a3bc
000000d0: 41be e1bc 944d ba3c b712 a6bc b5cc e3bc
000000e0: 2d54 b73c 46d7 a8bc f75e e5bc 6222 b43c
000000f0: 319a abbc fc79 e6bc 6131 b03c c82c aebc
00000100: 0331 e7bc f68f aa3c 0a5d b0bc 1b9d e7bc
00000110: 54a9 a13c bcf1 b1bc 43d7 e7bc 74f1 923c
00000120: eea1 b2bc 3ef5 e7bc b583 753c 8e13 b2bc
00000130: 1002 e8bc 377e 2b3c 8be5 afbc 59f0 e7bc
00000140: 012c 963b 4c6f abbc a1ab e7bc dd55 c7ba
00000150: 4029 a3bc 4537 e7bc 26b9 dcbb 09a1 94bc
00000160: 54a1 e6bc d44c 30bc 0dc6 7cbc c6f1 e5bc
00000170: efb4 61bc 0018 45bc a72a e5bc 617b 83bc
00000180: b014 08bc 854f e4bc 9fc8 91bc 35d1 90bb
00000190: f065 e3bc abe9 9cbc 5bd0 04ba 4c75 e2bc
000001a0: 259a a5bc a245 553b 5c85 e1bc 8359 acbc
000001b0: 8b15 da3b 869c e0bc 5b85 b1bc 3eab 1b3c
000001c0: 01c0 dfbc 3166 b5bc edc3 3f3c a7f3 debc
000001d0: 9935 b8bc b921 5a3c bc3b debc ab23 babc
000001e0: a0b9 6c3c 509d ddbc e359 bbbc 5a83 793c
000001f0: e01e ddbc acfc bbbc 1903 813c bac9 dcbc
00000200: cc2b bcbc a1a9 833c 2fa9 dcbc 4d02 bcbc
00000210: 2b0d 853c 32ca dcbc e896 bbbc 5960 853c
00000220: f43b ddbc d3fc babc 55b8 843c 880d debc
00000230: 0643 babc 710e 833c 154e dfbc 8276 b9bc
00000240: 113e 803c 900b e1bc 00a1 b8bc acf8 773c
00000250: 0951 e3bc 0aca b7bc
