logs/episodic_td3/Meta-context-dense-faucet-open-v2_8/algo_mean.pt (torch, 12901 bytes, 6 tensors)

mu.0.weight f4 [32, 6]
0.4919798 -0.28710946 -0.3360068 -0.58303523 -0.6633577 -0.42704257 -0.5412944 1.0447433
-0.036229607 0.8148047 0.5976779 0.65951955 -1.2845321 -0.6284293 -0.16828938 -0.752856
-0.1966564 -0.1527643 1.685544 -0.29666665 0.14828277 0.8584843 -0.2029085 0.2792792
-1.0914952 0.08264697 0.36965913 -0.8526321 -0.21755572 -0.14270248 -2.1556501 0.47651553
-0.26461825 -0.75920564 -0.16142689 -0.3543916 -1.8961813 0.56643105 0.18216789 -0.22589459
0.23697777 -0.08906795 -2.0820978 -0.31756595 -0.29498646 -0.9751545 0.32118994 0.20894071
1.5377971 0.13857639 0.26109958 1.245429 0.3153318 0.28394586 -0.7078063 -0.48457757
0.07607463 -0.8903648 -0.5271511 -0.5101745 2.0906181 -0.04034919 -0.2418269 0.52010137
0.019586178 -0.16722365 -0.79829323 -0.5541291 0.25326768 -0.68084836 -0.9633293 -0.8359972
-0.9392364 0.7749103 0.35526067 0.25567234 0.5179081 -0.0014016987 1.4584247 -0.23712541
-0.3804687 1.0983938 0.32869154 -0.30074394 -0.5819933 -0.6414817 -0.06718181 -0.85998696
-0.41571546 -0.8502057 -1.0436493 0.580972 0.29225335 -0.038954165 -0.029541988 0.020712102
1.4947582 0.4352712 -0.31846797 0.7828378 0.73388827 0.695167 1.2305219 -0.2910506
-0.38889655 0.33337447 -0.4957331 -0.4169484 1.037713 -0.013004974 -0.16719005 0.78363806
-0.3227389 0.38576645 1.8688002 -0.7266106 -0.1016066 -0.051202208 -0.32277355 -0.22140752
1.1589814 -0.16882712 -0.19919609 0.18392733 -0.58488715 -0.39795715 -0.51626086 -0.8729113
-0.14281888 -1.3394206 -0.76088864 -0.6477939 -1.4182668 -0.46497825 0.29224488 -0.9937086
-0.43267995 -0.5458686 0.29572266 0.6452001 0.38671166 0.93523586 0.77321523 0.41331744
-0.43715107 -0.6533405 0.2779784 -0.7184454 -0.66271996 -0.7888806 0.69233966 -0.80056083
-0.08280776 0.14440325 -0.23528388 -0.81442124 1.6411306 -0.49046093 -0.08630789 0.27207047
-0.24963836 -0.15953591 -0.51718116 -0.5424357 -0.063882485 -0.5698451 -0.37539238 -0.09653018
-0.13082458 0.5191809 0.35902148 0.47735927 0.915384 0.6782763 -0.9819186 0.7087956
-0.047109596 0.03825022 0.7769558 0.1136615 -1.4138447 0.30625173 0.2915353 -0.01720902
0.5878955 0.46295768 1.2479649 -0.11490696 -0.33642983 0.8861864 0.29509163 0.34168163
00000000: c7e4 fb3e 0300 93be 1509 acbe cc41 15bf
00000010: cfd1 29bf 53a5 dabe 4592 0abf 26ba 853f
00000020: 7f65 14bd 0a97 503f 6b01 193f 46d6 283f
00000030: 8c6b a4bf bee0 20bf 0d54 2cbe 2cbb 40bf
00000040: 4c60 49be 3f6e 1cbe e8bf d73f b1e4 97be
00000050: 70d7 173e a1c5 5b3f 3fc7 4fbe affd 8e3e
00000060: 1db6 8bbf d142 a93d f643 bd3e 1946 5abf
00000070: edc6 5ebe 9920 12be 2cf6 09c0 d8f9 f33e
00000080: 0b7c 87be 4d5b 42bf 174d 25be d172 b5be
00000090: 12b6 f2bf a001 113f 388a 3a3e e950 67be
000000a0: 4daa 723e 4269 b6bd 1741 05c0 0198 a2be
000000b0: 7708 97be baa3 79bf 0273 a43e 8ef4 553e
000000c0: 89d6 c43f f8e6 0d3e d8ae 853e 386a 9f3f
000000d0: 2b73 a13e 5a61 913e cb32 35bf 8d1a f8be
000000e0: 04cd 9b3d f3ee 63bf 60f3 06bf cc9a 02bf
000000f0: b0cc 0540 3145 25bd 79a1 77be 5d25 053f
00000100: 3173 a03c ad3c 2bbe f25c 4cbf 68db 0dbf
00000110: 4dac 813e 144c 2ebf c09c 76bf ea03 56bf
00000120: cc71 70bf 8560 463f bae4 b53e 7ce7 823e
00000130: a095 043f 34b9 b7ba a9ad ba3f 01d1 72be
00000140: cbcc c2be 2b98 8c3f 424a a83e 1cfb 99be
00000150: 83fd 14bf 2538 24bf 9e96 89bd 1b28 5cbf
00000160: a8d8 d4be 15a7 59bf 4d96 85bf 95ba 143f
00000170: 3ba2 953e 678e 1fbd 0a02 f2bc 6dac a93c
00000180: 3d54 bf3f dedb de3e 3c0e a3be 0f68 483f
00000190: 1ae0 3b3f 77f6 313f be81 9d3f 9604 95be
000001a0: 731d c7be 0fb0 aa3e bbd0 fdbe 437a d5be
000001b0: c8d3 843f d112 55bc de33 2bbe 819c 483f
000001c0: 083e a5be 2e83 c53e d834 ef3f 2703 3abf
000001d0: 1f17 d0bd 68b9 51bd 9342 a5be a7b8 62be
000001e0: 8159 943f 04e1 2cbe 0ffa 4bbe 7257 3c3e
000001f0: 2abb 15bf 0ac1 cbbe ac29 04bf 1d77 5fbf
00000200: 1d3f 12be 2272 abbf 99c9 42bf d2d5 25bf
00000210: c489 b5bf a111 eebe 1fa1 953e b063 7ebf
00000220: 3a88 ddbe 0bbe 0bbf f668 973e d52b 253f
00000230: 12ff c53e 9e6b 6f3f 6ff1 453f 589e d33e
00000240: 44d2 dfbe 5341 27bf 2f53 8e3e 0aec 37bf
00000250: 04a8 29bf 14f4 49bf 2c3d 313f 8ef1 4cbf
00000260: 1d97 a9bd 72de 133e 42ee 70be e97d 50bf
00000270: 9110 d23f b21d fbbe 31c2 b0bd d24c 8b3e
00000280: 33a1 7fbe 625d 23be fc65 04bf 11dd 0abf
00000290: d2d4 82bd 5ee1 11bf 6e33 c0be 9db1 c5bd
000002a0: e1f6 05be 0ae9 043f aad1 b73e 6f68 f43e
000002b0: 9b56 6a3f 84a3 2d3f 045f 7bbf a173 353f
000002c0: fef5 40bd 43ac 1c3d 93e6 463f 5cc7 e83d
000002d0: ddf8 b4bf 07cd 9c3e 1d44 953e eef9 8cbc
000002e0: 5280 163f ca08 ed3e 50bd 9f3f 5754 ebbd
000002f0: 8840 acbe 1ddd 623f 4016 973e e5f0 ae3e

mu.0.bias f4 [32]
-0.82451206 0.7580856 -0.6856049 -0.2508887 -0.27724785 0.16745539 -0.12306756 -0.039350804
0.24603257 -0.036165204 -0.4242903 -0.9668391 0.11659556 0.3922817 -0.7552894 0.62989426
0.5679328 -0.050292972 0.012312342 -0.3989838 -0.10474542 -0.8284662 -0.5135752 0.4949598
-0.79567176 -0.6347058 0.250295 -0.58160615 0.5011842 0.84764665 0.46629384 0.07398466
00000000: 3913 53bf e611 423f cd83 2fbf 7c74 80be
00000010: 6ef3 8dbe 6d79 2b3e d80a fcbd 4f2e 21bd
00000020: f6ef 7b3e f721 14bd 943c d9be c482 77bf
00000030: a7c9 ee3d 26d9 c83e a55a 41bf c040 213f
00000040: 0b64 113f 0100 4ebd b5b9 493c 9b47 ccbe
00000050: c484 d6bd 5c16 54bf aa79 03bf 5f6b fd3e
00000060: 25b1 4bbf 147c 22bf ab26 803e 24e4 14bf
00000070: 9c4d 003f 5fff 583f 11be ee3e 4585 973d

mu.2.weight f4 [32, 32]
-0.11904838 0.04658586 -0.05381626 -0.21168296 0.077338725 0.55061436 0.1903477 0.59800524
-0.106207766 0.20967077 -0.104348086 -0.062817484 0.0795752 -0.27859905 -0.044014577 0.0915581
-0.005615208 0.081026874 -1.3798947 0.028678264 0.090658575 -0.110055916 0.18418992 -0.20900236
0.05692872 -0.004902541 -0.50426996 0.0913961 0.09495012 -0.093595766 -0.109848365 -0.2508948
-0.1782638 0.0889272 -0.05578803 -0.3308321 -0.019676495 0.67977065 0.3470498 0.52064466
-0.042262394 -0.060961258 -0.29648298 0.05255953 0.19519137 -0.05151722 -0.073152795 -0.0093484875
-0.18227987 -0.07051172 -1.546405 -0.18986693 0.081996776 -0.10324672 -0.013495206 0.045893215
0.01168486 -0.13987976 -0.5695054 0.15030436 0.035355352 0.1606846 -0.011663129 -0.08397613
-0.14251944 0.0713583 -0.197031 0.0533901 -0.06319774 -0.12296204 -0.05015664 -0.17486516
0.23519376 -0.2312449 0.14571135 -0.1409271 -0.007320999 0.12976615 -0.20191449 0.1358526
0.12546374 -0.1721647 0.9463271 0.024552355 0.058137342 -0.10808741 -0.2206153 0.04741415
-0.029036881 -0.15183923 0.09127674 0.037006747 -0.023122592 0.08275441 0.14868273 0.10882213
0.1189691 -0.07067948 -0.049857788 0.12027879 0.22530943 0.069108374 0.030277211 0.06806091
-0.00286959 0.021074679 -0.0153826205 -0.053289864 0.10314855 0.0025255813 -0.035666153 0.035967503
0.024909629 0.28359455 0.22567868 0.24277894 0.04661161 0.043624736 0.20617536 -0.010562398
0.00062330835 0.24679002 0.1241549 0.2193111 -0.2163376 -0.06408234 -0.13053545 0.023346014
-0.0260843 0.055115063 0.0153461965 0.2770534 -0.13850924 -0.43572426 -0.3615238 -0.2837064
-0.03667377 -0.17559925 0.14870709 0.14604813 0.046487655 0.25274312 0.14170232 -0.25388816
-0.11115986 0.083013125 1.4017754 0.16479129 -0.03947325 -0.089559354 -0.18125385 -0.103857376
0.14251292 0.17423455 0.5560759 0.13322195 0.14799102 -0.06292103 0.023500027 0.26869065
-0.017741773 0.1877242 0.03871295 0.089637965 -0.17016613 0.1185601 0.013191612 -0.19004518
-0.029191557 -0.19094428 0.014642621 0.06465218 0.16276288 0.05880403 -0.18188038 0.18637557
0.1831486 -0.0012748714 -0.23799092 0.13025162 0.08715656 -0.1628895 0.17038703 0.18676892
-0.13958302 0.04314985 -0.16632912 -0.09500288 0.19201243 0.07985358 -0.08193845 0.02349374
-0.08790365 -0.008167349 -0.015943566 0.15009643 -0.01331797 -0.101111926 0.017284466 0.09686876
0.10866149 -0.18949471 0.036935918 -0.1646113 -0.041138116 0.0856358 -0.1838194 0.14936455
0.17678407 -0.0063195145 -0.079717435 -0.08314318 0.027841441 -0.16568865 0.037057385 -0.13324165
-0.20343858 -0.21499842 -0.0868569 0.10052656 -0.14999114 0.17608418 -0.034562837 0.06628806
0.07316473 -0.21289244 0.19222817 0.19845003 0.21900871 -0.16347751 -0.24941023 0.16430889
-0.018664021 0.14932463 -0.08813442 0.006993852 -0.258505 -0.090974845 0.117540866 -0.262212
0.010801087 0.1693254 0.88392025 -0.06528144 -0.079978555 -0.013169587 0.14539056 0.13004777
0.15442309 0.05311114 0.31558827 -0.13404469 -0.20078513 0.0245761 -0.17757672 0.072579235
00000000: a3cf f3bd d1d0 3e3d 706e 5cbd 6bc3 58be
00000010: c463 9e3d 10f5 0c3f 82ea 423e df16 193f
00000020: 7583 d9bd efb3 563e 73b4 d5bd 74a6 80bd
00000030: 53f8 a23d 89a4 8ebe a148 34bd d082 bb3d
00000040: c7ff b7bb 6bf1 a53d 64a0 b0bf aeee ea3c
00000050: 34ab b93d ff64 e1bd 489c 3c3e b704 56be
00000060: 172e 693d 7fa5 a0bb d617 01bf e12d bb3d
00000070: 3575 c23d 23af bfbd 2ef8 e0bd 4975 80be
00000080: c98a 36be 771f b63d fd81 64bd d362 a9be
00000090: 9a30 a1bc 7305 2e3f 83b0 b13e f848 053f
000000a0: 551b 2dbd 83b2 79bd 9ecc 97be a948 573d
000000b0: 3fe0 473e b803 53bd 22d1 95bd 662a 19bc
000000c0: 93a7 3abe 7368 90bd 99f0 c5bf 7a6c 42be
000000d0: eded a73d 0473 d3bd ff1a 5dbc 86fa 3b3d
000000e0: db71 3f3c a43c 0fbe 1bcb 11bf 63e9 193e
000000f0: c6d0 103d 818a 243e b516 3fbc adfb abbd
00000100: 9ef0 11be 4d24 923d 7fc2 49be 94af 5a3d
00000110: d16d 81bd 86d3 fbbd 0d71 4dbd da0f 33be
00000120: a2d6 703e 77cb 6cbe 5b35 153e 324f 10be
00000130: fee4 efbb 6be1 043e acc2 4ebe f21c 0b3e
00000140: 9179 003e f14b 30be 7e42 723f 0522 c93c
00000150: 6c21 6e3d ef5c ddbd fae8 61be 5735 423d
00000160: c1de edbc be7b 1bbe 4def ba3d 6394 173d
00000170: 976b bdbc 257b a93d 4940 183e 23de de3d
00000180: 12a6 f33d 67c0 90bd ae37 4cbd ba54 f63d
00000190: 84b7 663e b188 8d3d ea07 f83c 8563 8b3d
000001a0: bb0f 3cbb cea4 ac3c 6307 7cbc 7946 5abd
000001b0: 8c3f d33d 3984 253b ac16 12bd a952 133d
000001c0: 470f cc3c 4e33 913e 5018 673e 0b9b 783e
000001d0: d1eb 3e3d daaf 323d a21f 533e e80d 2dbc
000001e0: 8465 233a 86b6 7c3e ed44 fe3d 1793 603e
000001f0: 9b87 5dbe 9a3d 83bd 16ab 05be 2440 bf3c
00000200: beae d5bc 55c0 613d 9d6e 7b3c f1d9 8d3e
00000210: 5ed5 0dbe 4017 dfbe a619 b9be f741 91be
00000220: 3c37 16bd 4ad0 33be ac46 183e a48d 153e
00000230: d769 3e3d 8c67 813e 6a1a 113e a1fd 81be
00000240: c8a7 e3bd c902 aa3d 606d b33f 0cbf 283e
00000250: b4ae 21bd e56a b7bd 9c9a 39be 2db3 d4bd
00000260: e8ee 113e 8b6a 323e fd5a 0e3f 566b 083e
00000270: f58a 173e bedc 80bd 2183 c03c d291 893e
00000280: 3257 91bc c63a 403e 7891 1e3d 1c94 b73d
00000290: 0840 2ebe a3cf f23d a221 583c 349b 42be
000002a0: 2223 efbc e686 43be 9be7 6f3c 5d68 843d
000002b0: 50ab 263e 7fdc 703d da3e 3abe 3dd9 3e3e
000002c0: 4e8b 3b3e 9619 a7ba e4b3 73be ae60 053e
000002d0: 237f b23d 81cc 26be f079 2e3e 5a40 3f3e
000002e0: daee 0ebe e6bd 303d 2e52 2abe df90 c2bd
000002f0: e89e 443e 468a a33d 59cf a7bd f275 c03c
00000300: d406 b4bd 58d0 05bc 159c 82bc e1b2 193e
00000310: 9d33 5abc c513 cfbd 2798 8d3c 2163 c63d
00000320: ea89 de3d e70a 42be 1e4a 173d dd8f 28be
00000330: 7180 28bd d361 af3d 273b 3cbe 05f3 183e
00000340: e206 353e ee13 cfbb e542 a3bd f946 aabd
00000350: bc13 e43c 49aa 29be 7cc9 173d 8070 08be
00000360: 3452 50be 8c28 5cbe 08e2 b1bd dee0 cd3d
00000370: 4797 19be 694f 343e c391 0dbd 09c2 873d
00000380: 64d7 953d 7a00 5abe 76d7 443e 7c36 4b3e
00000390: d243 603e a666 27be 6565 7fbe 9740 283e
000003a0: 4ae5 98bc 8ee8 183e d27f b4bd af2c e53b
000003b0: c45a 84be 0551 babd 44b9 f03d a740 86be
000003c0: 0bf7 303c a363 2d3e 9948 623f 47b2 85bd
000003d0: cccb a3bd 40c5 57bc 43e1 143e 3e2b 053e
000003e0: 1621 1e3e 118b 593d c994 a13e 0343 09be
000003f0: 9e9a 4dbe d153 c93c acd6 35be 6ca4 943d

mu.2.bias f4 [32]
0.09058266 -0.039602235 0.19622386 0.05093773 0.083642885 -0.06976636 0.121617384 0.01536683
0.04483599 -0.1488877 0.1850094 -0.037028465 -0.16758174 0.031823743 -0.020125922 -0.2613336
-0.21188319 0.21257086 -0.11430251 0.25325137 0.10779698 0.23160824 0.007297813 0.08223239
-0.15216364 -0.24840459 0.012431443 -0.069536984 0.05468654 -0.12589355 0.20948398 0.17088671
00000000: 6783 b93d f435 22bd e8ee 483e 15a4 503d
00000010: f64c ab3d aae1 8ebd 8912 f93d 28c5 7b3c
00000020: f1a5 373d 0476 18be 1b73 3d3e 29ab 17bd
00000030: 8c9a 2bbe 9d59 023d 1edf a4bc 85cd 85be
00000040: e8f7 58be 2dac 593e 6f17 eabd 2aaa 813e
00000050: aac4 dc3d b62a 6d3e 7e22 ef3b 7569 a83d
00000060: c9d0 1bbe c65d 7ebe 40ad 4b3c 6869 8ebd
00000070: fefe 5f3d 3dea 00be f882 563e edfc 2e3e

mu.4.weight f4 [40, 32]
-0.93366927 -0.5669935 0.35074702 -0.45042118 0.27520373 0.32312688 -0.29483518 0.12226522
-0.4124057 -0.0070313644 0.6805167 1.0544516 0.501031 1.0277352 0.45245093 -0.4317586
0.98902553 -0.36614186 0.2798878 -0.5956125 -0.91542894 -0.7154427 -0.68979275 1.0669875
0.013067895 0.41213915 -0.97684145 0.42886502 -0.8716434 -0.5645667 -0.70327955 -0.704735
-0.05159279 -0.28189084 0.4331266 0.005479526 0.560762 -0.70695025 1.0891247 0.3253206
0.61728346 -0.30003566 -0.38858575 -1.5941924 -0.22729903 -0.48806116 -1.0927458 0.42124376
-1.497777 0.99426496 -0.29984105 -0.20842664 0.5222567 0.33368853 0.32807067 -0.2629214
1.0125884 -0.9261937 1.430167 -0.9549575 0.43854502 0.061577838 0.44785818 1.2775011
-0.29371282 0.1513074 0.13149847 -0.1369024 0.11382325 0.74412864 -0.5922156 0.10358102
-0.5315854 0.8092392 0.17123443 1.0850539 -0.13949132 0.5126424 0.8163774 -0.39487708
0.9182255 -0.3652601 0.36069575 0.43125582 -0.45465767 -0.39692503 -0.3675014 -0.17812364
-1.1258897 0.74819124 -1.0394043 0.8337668 -0.6658444 -0.38829988 -0.29576126 -0.65225804
0.30325577 0.8490345 0.5187902 -0.6941659 0.20498107 0.81664896 0.5853533 0.13615711
-0.5755797 -0.4035275 0.73403513 -0.40453112 -0.7738462 -0.7346508 -0.7504346 0.6679071
-0.21817963 0.9220046 0.49932864 0.33303732 0.83351994 0.12303009 0.6500914 -0.4805473
-0.45068416 -0.8882455 0.15560992 -0.686389 -0.8278827 0.53769916 0.6136047 0.6657945
-0.19514768 -1.4280907 0.5829948 0.11261903 1.1208649 0.005676406 0.23888214 -0.00062266743
0.11480208 0.21352386 -0.25867423 -0.31101885 0.041681867 0.46716493 -0.19637187 -0.53188056
-0.52098125 0.2735021 -0.39804998 -0.005918835 -1.2486641 -0.71986365 -0.609216 0.8279155
0.6295056 -0.04648235 0.19169039 -0.12797728 0.30405283 -1.9939047 0.012510026 0.23069772
-0.13706113 -0.17145614 0.45538223 -0.08914018 0.7475079 -0.5652508 0.88277364 0.27101427
0.643439 -0.4690141 -0.09798727 -1.3205943 0.022015242 -0.6516662 -0.9926168 0.34208888
-1.5122659 1.0754575 -0.23410822 -0.011964247 0.30835915 0.3152689 0.39368615 -0.3729879
0.87443376 -1.0359321 1.5068604 -0.9075078 0.7009349 -0.03708809 0.40446544 1.1540902
0.21230832 0.655621 0.09822885 -0.30153307 -0.419582 0.43456012 -0.050608445 0.06315994
-0.59102774 0.6281206 0.27218455 0.4517965 0.32216582 0.6937768 0.5708975 -0.73651886
0.6064221 -0.38961563 -0.25437725 0.6886279 -0.2930023 -0.24140652 -0.3167695 -0.20543045
-0.97152066 0.3616385 -0.40638918 0.37586078 -0.26146597 -0.6298526 0.13695851 -0.5385967
0.16934164 0.539982 0.6428386 -0.689864 0.09117209 1.0324506 0.68159497 0.08366621
-0.6946198 -0.84248286 0.6761635 -0.44537663 -0.5647005 -0.8240067 -0.8177551 0.6686387
-0.1354272 0.7974132 0.48237437 0.114629045 0.66214114 0.49994308 0.5012356 -0.66974515
-0.2425008 -0.8950931 0.4495994 -0.74344295 -0.55507314 0.062889546 0.24122089 0.5929273
00000000: f304 6fbf 7c26 11bf 1d95 b33e 9b9d e6be
00000010: 81e7 8c3e e370 a53e a3f4 96be 3066 fa3d
00000020: d726 d3be 5c67 e6bb 5836 2e3f 45f8 863f
00000030: 9143 003f d48c 833f a6a7 e73e 770f ddbe
00000040: c730 7d3f f276 bbbe 744d 8f3e 107a 18bf
00000050: 8d59 6abf 4127 37bf 4296 30bf 0c93 883f
00000060: b91a 563c e703 d33e 4812 7abf 3294 db3e
00000070: 0624 5fbf 7187 10bf 210a 34bf 8369 34bf
00000080: f652 53bd ff53 90be c5c2 dd3e 988d b33b
00000090: 198e 0f3f b1fa 34bf 7068 8b3f 6c90 a63e
000000a0: 4a06 1e3f 469e 99be b6f4 c6be 7f0e ccbf
000000b0: 14c1 68be 27e3 f9be 18df 8bbf 43ad d73e
000000c0: 28b7 bfbf 2688 7e3f c484 99be cb6d 55be
000000d0: 9db2 053f 39d9 aa3e e1f8 a73e a29d 86be
000000e0: 7f9c 813f 081b 6dbf b60f b73f 1878 74bf
000000f0: f988 e03e 0b39 7c3d ab4d e53e 2885 a33f
00000100: 8761 96be 54f0 1a3e 89a7 063e 2530 0cbe
00000110: 2a1c e93d 377f 3e3f 719b 17bf 4922 d43d
00000120: fb15 08bf 4d2a 4f3f 1458 2f3e 0ce3 8a3f
00000130: d0d6 0ebe 883c 033f 1cfe 503f 542d cabe
00000140: d410 6b3f 5f03 bbbe 1dad b83e 90cd dc3e
00000150: e4c8 e8be c239 cbbe 2529 bcbe 0b66 36be
00000160: 271d 90bf 7689 3f3f 330b 85bf be71 553f
00000170: c774 2abf 3ecf c6be 056e 97be 62fa 26bf
00000180: 5744 9b3e 535a 593f 6fcf 043f dbb4 31bf
00000190: 8fe6 513e e80f 513f b7d9 153f c56c 0b3e
000001a0: 3159 13bf 289b cebe bae9 3b3f b41e cfbe
000001b0: c91a 46bf 1312 3cbf 7b1c 40bf f6fb 2a3f
000001c0: 7b6a 5fbe 7e08 6c3f 01a8 ff3e de83 aa3e
000001d0: 9061 553f 33f7 fb3d 646c 263f 4c0a f6be
000001e0: 13c0 e6be 0f64 63bf 3558 1f3e 31b7 2fbf
000001f0: 1ff0 53bf a7a6 093f 3315 1d3f 8271 2a3f
00000200: cbd4 47be adcb b6bf 263f 153f cea4 e63d
00000210: 8078 8f3f 2501 ba3b 859d 743e 813a 23ba
00000220: 5a1d eb3d 00a6 5a3e f370 84be dd3d 9fbe
00000230: 9bba 2a3d 3e30 ef3e b515 49be 5329 08bf
00000240: 075f 05bf 7808 8c3e 35cd cbbe c9f2 c1bb
00000250: 3ad4 9fbf fc48 38bf 94f5 1bbf 45f2 533f
00000260: 4727 213f 4764 3ebd 7c4a 443e 7a0c 03be
00000270: d0ac 9b3e 4538 ffbf daf6 4c3c 063c 6c3e
00000280: c159 0cbe 3392 2fbe dc27 e93e 208f b6bd
00000290: ae5c 3f3f 47b4 10bf 74fd 613f 62c2 8a3e
000002a0: 6bb8 243f 9e22 f0be 8dad c8bd 3c09 a9bf
000002b0: 4f59 b43c 99d3 26bf 221c 7ebf 4626 af3e
000002c0: ee91 c1bf 97a8 893f 11ba 6fbe b005 44bc
000002d0: 40e1 9d3e ed6a a13e 3b91 c93e 45f8 bebe
000002e0: e4da 5f3f 6c99 84bf cde0 c03f 6e52 68bf
000002f0: 7870 333f aee9 17bd 1816 cf3e 3ab9 933f
00000300: 5a67 593e c7d6 273f 352c c93d 8b62 9abe
00000310: 74d3 d6be aa7e de3e cd4a 4fbd 005a 813d
00000320: 984d 17bf 83cc 203f c65b 8b3e df51 e73e
00000330: ebf2 a43e 5b9b 313f 5726 123f 808c 3cbf
00000340: 7b3e 1b3f b37b c7be bc3d 82be eb49 303f
00000350: 6604 96be 4533 77be 9d2f a2be 5c5c 52be
00000360: 94b5 78bf ae28 b93e 3e12 d0be d370 c03e
00000370: dede 85be 053e 21bf da3e 0c3e 79e1 09bf
00000380: e567 2d3e 433c 0a3f 1291 243f ed9a 30bf
00000390: 6fb8 ba3d 5727 843f 027d 2e3f 3159 ab3d
000003a0: 9ad2 31bf f5ac 57bf 0d19 2d3f 6808 e4be
000003b0: 3690 10bf 1af2 52bf 6658 51bf e82b 2b3f
000003c0: 6ead 0abe 4523 4c3f c6f9 f63e a2c2 ea3d
000003d0: 1582 293f 8af8 ff3e fa50 003f 6b74 2bbf
000003e0: 2152 78be d224 65bf e431 e63e 4752 3ebf
000003f0: 4619 0ebf 3ccc 803d 9c02 773e 15ca 173f

mu.4.bias f4 [40]
-0.9798596 1.4141877 -0.8638268 0.23313767 0.34678894 1.5741402 -0.5936629 0.24769726
1.1327478 1.411528 -1.0021874 0.12819345 1.4292724 1.3399673 -1.0513844 0.074402004
1.1663352 1.0765923 -1.0540937 -0.14531732 1.1808761 1.2896893 -0.7574804 -0.36042917
1.2039618 0.95416594 -0.4933381 0.14387882 0.7338512 0.6754895 -0.83138204 0.17299652
0.3169147 0.20490047 -0.5665266 0.3363297 0.6186631 -0.19492647 -0.30648816 0.1919697
00000000: 14d8 7abf 1a04 b53f c123 5dbf a4bb 6e3e
00000010: 528e b13e 6d7d c93f 4bfa 17bf 5aa4 7d3e
00000020: e1fd 903f f3ac b43f ad47 80bf 2545 033e
00000030: 66f2 b63f 0c84 ab3f c493 86bf 1460 983d
00000040: 794a 953f c7cd 893f 8bec 86bf 10ce 14be
00000050: f326 973f 8a14 a53f 3cea 41bf 2c8a b8be
00000060: 6c1b 9a3f 3844 743f d096 fcbe f854 133e
00000070: acdd 3b3f e1ec 2c3f 74d5 54bf 0026 313e
00000080: a542 a23e 6ed1 513e e307 11bf 6833 ac3e
00000090: b460 1e3f ce9a 47be 04ec 9cbe b493 443e
