logs/episodic_td3/Meta-context-dense-faucet-open-v2_8/best_model.pt (torch, 12901 bytes, 6 tensors)

mu.0.weight f4 [32, 6]
00000000: 098f ba3e bcd8 95be 1509 acbe bc14 1fbf
00000010: 203e 2bbf 74bf dcbe 3a5e b9be 3e18 853f
00000020: 7f65 14bd f1d5 593f 9cbd 173f 2f39 283f
00000030: b0b7 c1bf d3b8 19bf 0d54 2cbe 935b 46bf
00000040: 00c1 2cbe 00cd 04be 8019 cf3f bf01 9bbe
00000050: 70d7 173e 82a1 543f 5301 56be 88cf 883e
00000060: a5b4 82bf fc38 ad3d f643 bd3e 53f1 54bf
00000070: e3cb 5cbe e29d 0cbe 3ca8 07c0 d775 f33e
00000080: 0b7c 87be c8dd 3ebf 3e55 26be 3dec b2be
00000090: 5974 ecbf 8198 113f 388a 3a3e 4566 53be
000000a0: ef05 753e a863 a5bd c5bb f8bf 52cd a1be
000000b0: 7708 97be b7d9 6fbf b13d a53e a983 5d3e
000000c0: 2f35 cf3f 4f2c 023e d8ae 853e fb75 a03f
000000d0: e595 9b3e 5741 8a3e e9e1 1abf 0be3 f3be
000000e0: 04cd 9b3d da39 5abf 9cd7 04bf 398e febe
000000f0: 8aee 0440 4940 10bd 79a1 77be e650 043f
00000100: b87c ca3c 5763 2bbe eaee 4ebf e9ee 0abf
00000110: 4dac 813e 1f99 2abf 41b0 73bf d63f 52bf
00000120: 9452 78bf 1837 453f bae4 b53e 0855 7d3e
00000130: 336c 033f a967 c5ba 311f a43f 25f4 67be
00000140: cbcc c2be 8204 893f a7b8 ad3e 60e7 97be
00000150: 7c77 09bf 44de 1cbf 9e96 89bd d390 52bf
00000160: 3125 c6be bedb 52bf 5869 7dbf 58de 123f
00000170: 3ba2 953e 0880 ecbc 42c4 16bd 6537 a13c
00000180: 9834 ca3f d75c d63e 3c0e a3be 5b29 493f
00000190: 82a0 373f 8661 2d3f 6947 a33f be86 92be
000001a0: 731d c7be 35e4 b03e e352 fbbe a71c d5be
000001b0: 061d 833f eb86 20bc de33 2bbe 2829 473f
000001c0: b199 a3be 785c c43e 6572 c53f fc02 46bf
000001d0: 1f17 d0bd dc18 31be 5042 bdbe d8c4 8bbe
000001e0: e7fe 853f fa07 56be 0ffa 4bbe a834 003e
000001f0: f204 20bf b02f e1be d269 10bf fe96 5bbf
00000200: 1d3f 12be b862 aabf 7ae9 3ebf 01fe 20bf
00000210: b51b b5bf ee36 e7be 1fa1 953e 9431 79bf
00000220: 87ad d6be 7f71 07bf 8178 be3e e566 223f
00000230: 12ff c53e ad76 713f 7f2c 433f f02f cd3e
00000240: 2345 08bf f088 24bf 2f53 8e3e 76ea 39bf
00000250: a1ef 26bf 4813 48bf 648b 123f 1cb0 4dbf
00000260: 1d97 a9bd b68e db3d e4e7 73be 58f4 50bf
00000270: fb40 cf3f 7350 fabe 31c2 b0bd 4b78 863e
00000280: 9306 7ebe bf87 27be 2e8a 27bf 56fb 08bf
00000290: d2d4 82bd 2381 19bf de6f bcbe 15a3 b5bd
000002a0: 64d7 5dbe ece9 f93e aad1 b73e e1ad da3e
000002b0: 7662 623f 4fc4 253f 6035 89bf f5d1 333f
000002c0: fef5 40bd af9e 953c e744 453f 660a e43d
000002d0: c40d a4bf 547b 8f3e 1d44 953e 9883 90bc
000002e0: 6dd7 0f3f 3538 e23e 5228 943f e839 ddbd
000002f0: 8840 acbe 04f4 5d3f da9c 9a3e a82a af3e
0.36437252 -0.29266918 -0.3360068 -0.62141013 -0.6689167 -0.43114817 -0.36204702 1.0398023
-0.036229607 0.85092074 0.59273696 0.65712255 -1.5134182 -0.60047644 -0.16828938 -0.7748348
-0.16870499 -0.12968826 1.6179657 -0.3027477 0.14828277 0.8305894 -0.20898943 0.26720834
-1.0211378 0.084581345 0.36965913 -0.8318073 -0.21562152 -0.13732103 -2.1196432 0.47550842
-0.26461825 -0.7455716 -0.16243455 -0.3494586 -1.8473006 0.5687333 0.18216789 -0.20644481
0.23928045 -0.080756485 -1.9432303 -0.3160196 -0.29498646 -0.9369158 0.3227363 0.21632256
1.6188105 0.12712215 0.26109958 1.2536005 0.30387798 0.27002975 -0.6050096 -0.47634158
0.07607463 -0.85244524 -0.51891494 -0.49717882 2.0770593 -0.035217557 -0.2418269 0.5168594
0.024717674 -0.16737114 -0.80833304 -0.542708 0.25326768 -0.66639894 -0.9519082 -0.82128656
-0.97001004 0.7703719 0.35526067 0.24739468 0.51336974 -0.00150608 1.2822019 -0.22651727
-0.3804687 1.0704501 0.3392994 -0.29668713 -0.53697944 -0.6127665 -0.06718181 -0.82252234
-0.3870025 -0.8236655 -0.98988867 0.5737052 0.29225335 -0.028869644 -0.03680826 0.019679734
1.57973 0.41867706 -0.31846797 0.7857873 0.7172929 0.67726934 1.2756168 -0.28618425
-0.38889655 0.34549108 -0.49086675 -0.41623423 1.0243232 -0.009797792 -0.16719005 0.77797174
-0.31953195 0.38351798 1.5425535 -0.77348304 -0.1016066 -0.1729464 -0.36964655 -0.27298617
1.0468415 -0.2090148 -0.19919609 0.12520087 -0.62507546 -0.43981695 -0.5641147 -0.8577727
-0.14281888 -1.3311377 -0.74575007 -0.6288758 -1.414908 -0.45159096 0.29224488 -0.97341275
-0.41929266 -0.52907556 0.37201312 0.63438255 0.38671166 0.9432171 0.7623977 0.40075636
-0.53230494 -0.6427145 0.2779784 -0.72623384 -0.65209395 -0.7815442 0.57243943 -0.80346847
-0.08280776 0.10720579 -0.23818928 -0.8162284 1.6191705 -0.48889503 -0.08630789 0.2626365
-0.24807195 -0.16360377 -0.6544522 -0.5350851 -0.063882485 -0.5996267 -0.36804098 -0.08868996
-0.21664196 0.4881128 0.35902148 0.42710784 0.8843149 0.6475267 -1.0719414 0.70242244
-0.047109596 0.018264143 0.7705826 0.11134796 -1.2816701 0.2802378 0.2915353 -0.017640874
0.5618809 0.44183508 1.1574805 -0.1080206 -0.33642983 0.86700463 0.30197793 0.34212232

mu.0.bias f4 [32]
00000000: 2220 54bf e474 413f 5d9b 29bf 6ea2 86be
00000010: 2f32 8bbe 6787 303e 5804 ebbd d6f5 02bd
00000020: 0faf 6d3e 78d0 bdbc e44f d9be 62be 73bf
00000030: 9a92 ee3d d4ec ca3e d78e 3abf 21fd 203f
00000040: 11cf 0c3f 1d12 4bbd e5e7 243c 9db0 e6be
00000050: 481f 16be 423e 4fbf 925a febe 72fd f63e
00000060: 12d0 49bf 8ff2 22bf 9722 7c3e 5de2 12bf
00000070: e2db f03e d167 583f 1fed e33e 576a 983d
-0.8286153 0.75568986 -0.6625269 -0.262958 -0.27186725 0.17239152 -0.11475438 -0.03197273
0.23211311 -0.023170695 -0.42443764 -0.95212376 0.11649056 0.3963381 -0.72874206 0.62886244
0.5500346 -0.04957782 0.010065054 -0.4505662 -0.1466037 -0.8095437 -0.49678475 0.48240238
-0.78833115 -0.63651365 0.2462257 -0.5737665 0.47042757 0.8453341 0.44516847 0.07442158

mu.2.weight f4 [32, 32]
00000000: cd31 11be e443 8e3d 1e8f a3bd 2458 47be
00000010: 62f0 003d f5b3 f63e ae4e 363e 0f5b e53e
00000020: 337b 89bd 7e7d 3a3e e02a 93bd ae25 b0bd
00000030: 98b3 ca3d 3c96 6cbe e6e3 8abd 3407 e03d
00000040: 82cc 9d3c 395a 9b3d e7d6 9ebf 7793 293c
00000050: 7a84 a23d da82 08be 8d6b 213e 38e5 3dbe
00000060: 06b9 093d 93b3 d5bc 86d8 f3be 9604 893d
00000070: 5b21 f13d 3a67 92bd 89b7 bcbd 19ad 45be
00000080: 047d 41be 5a8a cc3d e9de 89bd 2ecc a4be
00000090: ebf4 1abd 91dc 253f b81a ad3e 2081 ef3e
000000a0: 525e e1bc a4a1 92bd 8fcb 91be d8be 293d
000000b0: 9afe 4f3e ed74 08bd 6389 acbd d15c 9aba
000000c0: 5a30 2fbe 122b 91bd 37bc bcbf 37b9 4abe
000000d0: 464f a03d cb3d eabd 47c8 ccbc 7660 683d
000000e0: ea61 2d3a 2f41 19be 7337 0dbf 60c8 0e3e
000000f0: ebea 3b3d 464f 2f3e 84e7 7dbb e982 81bd
00000100: e642 00be cd18 5d3d 5ade 38be 4f86 953d
00000110: fb94 50bd 44f3 16be 7b06 8cbd 6b52 4bbe
00000120: e2b7 633e f919 5dbe 042b 2d3e 6911 fdbd
00000130: 5a15 c6bc 12d2 f23d 6d39 3dbe e230 f23d
00000140: 63b0 de3d 3656 1ebe 086b 793f 4dfb 2a3d
00000150: 6eab 993d 68d9 b9bd 3d4e 51be aeb2 f83c
00000160: f2dc 40bc b3c9 09be fdb4 e13d e603 5c3d
00000170: fa18 25bd 4dd9 853d 075c 063e 75cc cd3d
00000180: db39 0a3e c6c2 b1bd eddd 04bd a092 f13d
00000190: b1f5 803e 6c04 c03d 4e19 fd3c 1402 163e
000001a0: 534d d4bc d654 1f3d 14d6 bfbc db94 17bd
000001b0: d725 b63d aa24 c8bc cd0f 9dbc 9351 b63c
000001c0: e1d3 023c 6212 953e 6f1a 2c3e 5951 833e
000001d0: bdaa 683d d579 753d 922a 653e 9153 dcbc
000001e0: aea6 8a3c 992c 863e e613 ee3d 86a3 713e
000001f0: 28e4 6dbe 3089 a3bd 1893 13be ca6c 04bc
00000200: ec2f 91bc ca70 3e3d 1d85 c93c cabf 873e
00000210: aec6 f9bd 0ea9 cdbe a809 b3be 3054 68be
00000220: 8caf 4abd 1130 2bbe c735 093e 3090 1e3e
00000230: a8de 273d 63bf 713e c115 1a3e 41e9 84be
00000240: 22e7 f5bd 6738 a53d 0579 aa3f 3f8c 2e3e
00000250: 68c8 1cbd e15e a5bd 4e20 30be d429 e6bd
00000260: 4ad9 1a3e 7401 3a3e 7f0e 093f a233 113e
00000270: ea29 0f3e c498 91bd 07f6 943c 8c0a 7f3e
00000280: 1606 aabc e565 433e 989b 143d ca81 ad3d
00000290: 3b93 2ebe 8537 033e 5506 893c e984 31be
000002a0: b5d0 edbc 9e11 45be 3bd0 cd3b 4424 7c3d
000002b0: 6c41 293e 0f29 6e3d 712d 3dbe 8c1b 423e
000002c0: 4739 3e3e 6cce 8abb dcb2 7fbe b175 023e
000002d0: b576 ac3d 5df3 29be 2d27 2c3e 0220 423e
000002e0: 8a05 12be 9558 243d 9831 2ebe 5bbb c7bd
000002f0: 3b84 473e acf3 a93d e99a a1bd 2f94 ab3c
00000300: c2c9 93bd a407 c5bc 8de3 c438 bbbe 203e
00000310: 3113 bd3b 8597 cdbd ae6a 313c d787 093e
00000320: 6ece bb3d 8a68 32be 133e 333d c337 18be
00000330: a799 62bd 8773 8a3d cef7 2bbe bb0f 0a3e
00000340: 80c5 243e 0fa8 893b 21b5 c0bd e2f1 8cbd
00000350: b576 243d 5d51 19be 90ed 583d 488f 18be
00000360: 8507 40be f881 4cbe ab47 acbd 4b05 ee3d
00000370: c587 29be a941 243e f44e 48bd 618e 413d
00000380: 3ba3 db3c e484 2abe 7ab0 133e 0141 2b3e
00000390: 296d 273e 9b8c 1ebe d914 5dbe 3d65 983d
000003a0: 518e 0d3d 5171 ce3d a60f e6bd 31c1 21bd
000003b0: 6649 5abe fb2a 15bd 4aad 903d 94b3 5ebe
000003c0: 5ff8 6d3d 8368 043e dcbf 693f 88d5 e0bd
000003d0: 33d5 f8bd fd72 74bd d57f c73d 8dfc 343e
000003e0: 82de dc3d 56e6 ee3b 1476 933e eb88 39be
000003f0: c20a 1ebe dfc4 903d 2de9 07be 6cef 053e
-0.14179154 0.06946543 -0.07986282 -0.19467217 0.031479247 0.4818417 0.17803451 0.44796035
-0.067129515 0.18211934 -0.07185912 -0.08600937 0.09897536 -0.23104185 -0.067817494 0.10938874
0.019262556 0.07585568 -1.2409333 0.0103501 0.07935424 -0.13331166 0.15763684 -0.18544471
0.033623718 -0.026086604 -0.47626132 0.06690328 0.1177394 -0.07148595 -0.09214694 -0.19304313
-0.18895346 0.09987326 -0.0673197 -0.32187027 -0.03783123 0.6478968 0.33809447 0.46778202
-0.027510796 -0.07159737 -0.28475615 0.04144177 0.20311967 -0.033314634 -0.08424642 -0.0011776929
-0.17108288 -0.07088293 -1.4744939 -0.19797216 0.0782762 -0.11437567 -0.024997843 0.056732617
0.00066140166 -0.14966272 -0.55162734 0.13943624 0.045878332 0.17120084 -0.003874273 -0.06323797
-0.1252552 0.05397873 -0.1805357 0.07301008 -0.05092333 -0.14741236 -0.068371736 -0.19855659
0.22238114 -0.21591939 0.1691094 -0.12356836 -0.024180103 0.11856474 -0.18478937 0.1182573
0.10873487 -0.15462574 0.9742894 0.041743565 0.07503401 -0.0907467 -0.20440002 0.030358639
-0.0117714275 -0.13455848 0.11020849 0.053714655 -0.040307023 0.065355875 0.13121043 0.10048763
0.13498633 -0.08679728 -0.032438207 0.117955446 0.25187448 0.093758434 0.030895855 0.1464923
-0.025915777 0.038899265 -0.02341751 -0.037007194 0.08893936 -0.024431545 -0.019172573 0.022255694
0.007985086 0.29115587 0.16806959 0.25648 0.056803454 0.05993064 0.2237952 -0.026895316
0.016925182 0.262059 0.11624889 0.23597535 -0.23231566 -0.07985151 -0.1441158 -0.008082578
-0.017723046 0.046494283 0.024599606 0.2651351 -0.12196098 -0.4016804 -0.34968305 -0.22688365
-0.04948382 -0.16717555 0.1339942 0.1548469 0.040983826 0.23608164 0.15047361 -0.2595921
-0.12006976 0.080673985 1.3318182 0.17045687 -0.03827706 -0.08074737 -0.17199823 -0.11238447
0.15121952 0.18164617 0.53537744 0.14179853 0.13980833 -0.07109216 0.018183721 0.24906367
-0.020754855 0.19081838 0.0362812 0.08472021 -0.17048351 0.12814148 0.016726652 -0.17335857
-0.029030183 -0.19245002 0.0062809265 0.061558023 0.16528863 0.058144625 -0.18474366 0.18955821
0.18576537 -0.004236033 -0.24970573 0.12740208 0.08421079 -0.16596742 0.1681182 0.18957523
-0.14259925 0.04012354 -0.17011106 -0.09752532 0.19484036 0.0829843 -0.07890875 0.020944683
-0.072162166 -0.024051495 9.388393e-05 0.15697758 0.00577011 -0.10038666 0.010828657 0.13430725
0.09170233 -0.17422691 0.04376037 -0.14865021 -0.055322316 0.06760316 -0.16793749 0.13482563
0.16090965 0.0042009423 -0.094095476 -0.06882073 0.04015227 -0.14972444 0.052960932 -0.14898407
-0.18752868 -0.19971454 -0.08412107 0.11622103 -0.16555698 0.16040672 -0.04890342 0.047254924
0.026811233 -0.16652256 0.14422789 0.16724016 0.16350235 -0.15483324 -0.21589984 0.07441185
0.03455955 0.10080207 -0.112334535 -0.039490882 -0.21317062 -0.036417942 0.07064302 -0.21748191
0.058098193 0.12930493 0.9130838 -0.10978228 -0.121500395 -0.059679974 0.09741179 0.17674465
0.107846275 0.007290642 0.28801024 -0.18118636 -0.15433791 0.070688 -0.13272543 0.13079613

mu.2.bias f4 [32]
00000000: 1686 e83d 2865 e8bc d2fd 363e 6536 0e3d
00000010: a50d 993d c844 88bd 242f d83d 81c2 7c3d
00000020: 3420 383d 865f 16be e209 4b3e 0d9b c9bc
00000030: f6a2 05be 62d0 033d 0770 0ebd bca3 67be
00000040: 0534 4bbe 499c 5b3e 2804 babd 34f4 683e
00000050: ddb7 dc3d 9e76 4e3e 4b81 57ba 7bf3 a93d
00000060: ad04 29be 01c9 66be 8179 a13b 8395 e4bd
00000070: 7b1f 573d 642f b9bd 6fd2 2d3e ef10 423e
0.113537 -0.028368548 0.17870262 0.034719843 0.074733056 -0.06653744 0.10555866 0.06170893
0.044952586 -0.14684877 0.19827989 -0.024610067 -0.13050446 0.03218115 -0.034774806 -0.22621053
-0.19844063 0.21446337 -0.09082824 0.22749406 0.10777257 0.20162436 -0.0008220865 0.08298393
-0.1650569 -0.22537614 0.0049278145 -0.111613296 0.052520256 -0.09042242 0.16974805 0.18951772

mu.4.weight f4 [40, 32]
00000000: 9f17 6dbf 5be3 12bf faf6 af3e f182 e3be
00000010: 20c6 8e3e fd61 a23e 9caa 9bbe 9c41 033e
00000020: 3ca5 cfbe 8294 8bbc 1dbd 2c3f dfc5 873f
00000030: 1187 003f c275 833f 9bdd ea3e 8279 d8be
00000040: 96cb 7e3f b1ad bebe 27ea 923e 0a06 1bbf
00000050: 2178 67bf 0f50 3bbf 4678 32bf bb08 8a3f
00000060: 210e 253c 7645 d63e 6cb9 7bbf 9cb5 de3e
00000070: 02c2 5dbf 79da 0ebf 355a 36bf 69e4 35bf
00000080: f652 53bd ff53 90be c5c2 dd3e 988d b33b
00000090: 198e 0f3f b1fa 34bf 7068 8b3f 6c90 a63e
000000a0: 4a06 1e3f 469e 99be b6f4 c6be 7f0e ccbf
000000b0: 14c1 68be 27e3 f9be 18df 8bbf 43ad d73e
000000c0: 28b7 bfbf 2688 7e3f c484 99be cb6d 55be
000000d0: 9db2 053f 39d9 aa3e e1f8 a73e a29d 86be
000000e0: 7f9c 813f 081b 6dbf b60f b73f 1878 74bf
000000f0: f988 e03e 0b39 7c3d ab4d e53e 2885 a33f
00000100: 2bc4 8ebe f7cb 5e3e db26 473e 1420 44be
00000110: facb 8d3c ec32 4c3f e731 00bf bd8a 403b
00000120: ba40 17bf a134 553f a8fe 633e 84bc 833f
00000130: 7e87 7fbe 3067 ec3e 87b1 423f 9541 f4be
00000140: 1fc4 5c3f fd64 9ebe 19eb 9a3e 2061 ff3e
00000150: 906b 02bf 05d8 a1be 1a99 9bbe ee33 7dbe
00000160: ddc7 96bf b719 313f 7576 7bbf d29c 473f
00000170: 4970 38bf 5904 e5be 6988 64be af56 19bf
00000180: 5744 9b3e 535a 593f 6fcf 043f dbb4 31bf
00000190: 8fe6 513e e80f 513f b7d9 153f c56c 0b3e
000001a0: 3159 13bf 289b cebe bae9 3b3f b41e cfbe
000001b0: c91a 46bf 1312 3cbf 7b1c 40bf f6fb 2a3f
000001c0: 7b6a 5fbe 7e08 6c3f 01a8 ff3e de83 aa3e
000001d0: 9061 553f 33f7 fb3d 646c 263f 4c0a f6be
000001e0: 13c0 e6be 0f64 63bf 3558 1f3e 31b7 2fbf
000001f0: 1ff0 53bf a7a6 093f 3315 1d3f 8271 2a3f
00000200: cb96 6ebe 3969 b6bf ce26 173f a025 dd3d
00000210: d293 8f3f abb0 2f3c 6da8 7a3e bdfe 74bb
00000220: ae2c e23d 5ab2 a23e e278 81be f887 a1be
00000230: 0890 523d b4af f13e 98aa 4dbe 5bd5 09bf
00000240: 2c84 06bf e359 8e3e 7227 cebe 415b efba
00000250: 220c aabf 9a2e 37bf 3f12 1bbf 9d06 533f
00000260: a336 243f a2b2 50bd a7cc 483e 5871 07be
00000270: 591e 9a3e 48d3 ffbf ff75 8a3c 8504 703e
00000280: c159 0cbe 3392 2fbe dc27 e93e 208f b6bd
00000290: ae5c 3f3f 47b4 10bf 74fd 613f 62c2 8a3e
000002a0: 6bb8 243f 9e22 f0be 8dad c8bd 3c09 a9bf
000002b0: 4f59 b43c 99d3 26bf 221c 7ebf 4626 af3e
000002c0: ee91 c1bf 97a8 893f 11ba 6fbe b005 44bc
000002d0: 40e1 9d3e ed6a a13e 3b91 c93e 45f8 bebe
000002e0: e4da 5f3f 6c99 84bf cde0 c03f 6e52 68bf
000002f0: 7870 333f aee9 17bd 1816 cf3e 3ab9 933f
00000300: 196c 303e 4a0b 283f 303d d53d cd70 9cbe
00000310: 96a2 d4be 3d55 e03e 96bf 35bd 327e 753d
00000320: 6947 18bf f6ed 323f eab7 8c3e 1e01 e53e
00000330: a809 a63e 94d7 323f 27fe 103f 59d1 3dbf
00000340: 2b16 1a3f c529 c5be f891 84be e64e 313f
00000350: ce26 a8be 1f28 73be 79cf a0be d8c6 54be
00000360: 5461 73bf 07d8 b63e e1c2 cdbe 0b6c be3e
00000370: bc35 87be 366a 22bf 6bb6 103e 1cf3 08bf
00000380: e567 2d3e 433c 0a3f 1291 243f ed9a 30bf
00000390: 6fb8 ba3d 5727 843f 027d 2e3f 3159 ab3d
000003a0: 9ad2 31bf f5ac 57bf 0d19 2d3f 6808 e4be
000003b0: 3690 10bf 1af2 52bf 6658 51bf e82b 2b3f
000003c0: 6ead 0abe 4523 4c3f c6f9 f63e a2c2 ea3d
000003d0: 1582 293f 8af8 ff3e fa50 003f 6b74 2bbf
000003e0: 2152 78be d224 65bf e431 e63e 4752 3ebf
000003f0: 4619 0ebf 3ccc 803d 9c02 773e 15ca 173f
-0.9261417 -0.57378167 0.34368116 -0.44435838 0.27885532 0.31715384 -0.30403602 0.12817997
-0.4055575 -0.017038587 0.67476064 1.060726 0.50206095 1.0270312 0.45872197 -0.42280203
0.995294 -0.3724189 0.2869427 -0.6055609 -0.9041768 -0.73169035 -0.6971477 1.0783914
0.010074169 0.4184987 -0.98329806 0.43497932 -0.8662416 -0.5580211 -0.71231395 -0.7105165
-0.05159279 -0.28189084 0.4331266 0.005479526 0.560762 -0.70695025 1.0891247 0.3253206
0.61728346 -0.30003566 -0.38858575 -1.5941924 -0.22729903 -0.48806116 -1.0927458 0.42124376
-1.497777 0.99426496 -0.29984105 -0.20842664 0.5222567 0.33368853 0.32807067 -0.2629214
1.0125884 -0.9261937 1.430167 -0.9549575 0.43854502 0.061577838 0.44785818 1.2775011
-0.2788404 0.21757494 0.19448416 -0.19152862 0.017309178 0.797652 -0.50076145 0.002937957
-0.5908314 0.8328343 0.22265112 1.0291905 -0.2495403 0.46172476 0.76052135 -0.47706285
0.8623676 -0.30936423 0.3025749 0.49878788 -0.5094538 -0.31610122 -0.30390245 -0.24726841
-1.1779743 0.6917986 -0.98227626 0.77973664 -0.72046334 -0.4472988 -0.22317661 -0.59897894
0.30325577 0.8490345 0.5187902 -0.6941659 0.20498107 0.81664896 0.5853533 0.13615711
-0.5755797 -0.4035275 0.73403513 -0.40453112 -0.7738462 -0.7346508 -0.7504346 0.6679071
-0.21817963 0.9220046 0.49932864 0.33303732 0.83351994 0.12303009 0.6500914 -0.4805473
-0.45068416 -0.8882455 0.15560992 -0.686389 -0.8278827 0.53769916 0.6136047 0.6657945
-0.2329971 -1.4250861 0.59043586 0.10798192 1.1216986 0.010723273 0.24478312 -0.003738328
0.11043678 0.31776696 -0.2528754 -0.31549048 0.05140689 0.47204363 -0.20084608 -0.5384118
-0.5254543 0.27802953 -0.4026447 -0.0018261449 -1.3284953 -0.71555483 -0.60574716 0.82431966
0.6414587 -0.050951608 0.19609319 -0.13226831 0.30101278 -1.9986353 0.016901968 0.23439224
-0.13706113 -0.17145614 0.45538223 -0.08914018 0.7475079 -0.5652508 0.88277364 0.27101427
0.643439 -0.4690141 -0.09798727 -1.3205943 0.022015242 -0.6516662 -0.9926168 0.34208888
-1.5122659 1.0754575 -0.23410822 -0.011964247 0.30835915 0.3152689 0.39368615 -0.3729879
0.87443376 -1.0359321 1.5068604 -0.9075078 0.7009349 -0.03708809 0.40446544 1.1540902
0.17228736 0.65642226 0.10412061 -0.3055481 -0.41530293 0.43815032 -0.044372164 0.059934802
-0.59483963 0.6989435 0.27484065 0.44727415 0.32429242 0.69860196 0.56637806 -0.74147564
0.60190076 -0.3850843 -0.25892615 0.69261014 -0.32842106 -0.23745774 -0.3140829 -0.20778978
-0.95070386 0.3571169 -0.40187743 0.37191805 -0.26408184 -0.63443315 0.14132087 -0.53495955
0.16934164 0.539982 0.6428386 -0.689864 0.09117209 1.0324506 0.68159497 0.08366621
-0.6946198 -0.84248286 0.6761635 -0.44537663 -0.5647005 -0.8240067 -0.8177551 0.6686387
-0.1354272 0.7974132 0.48237437 0.114629045 0.66214114 0.49994308 0.5012356 -0.66974515
-0.2425008 -0.8950931 0.4495994 -0.74344295 -0.55507314 0.062889546 0.24122089 0.5929273

mu.4.bias f4 [40]
00000000: f572 7cbf 1a04 b53f 08d7 4ebf a4bb 6e3e
00000010: 1bd8 b33e 6d7d c93f 03d2 16bf 5aa4 7d3e
00000020: e1fd 903f f3ac b43f ad47 80bf 2545 033e
00000030: 66f2 b63f 0c84 ab3f c493 86bf 0387 873d
00000040: 794a 953f 481f 843f f0fe 86bf 10ce 14be
00000050: f326 973f 8a14 a53f 01b2 8fbf 0678 cbbe
00000060: 6c1b 9a3f 3844 743f de72 3ebf b04e d73d
00000070: 24b5 353f 1956 2a3f c45c 56bf a12c 183e
00000080: 7204 a13e 551c 233e f8e5 4dbf 9289 a53e
00000090: de28 153f 05a2 26be 4021 8fbe 5be7 2f3e
-0.9861291 1.4141877 -0.8079686 0.23313767 0.35125813 1.5741402 -0.589142 0.24769726
1.1327478 1.411528 -1.0021874 0.12819345 1.4292724 1.3399673 -1.0513844 0.06617548
1.1663352 1.0322046 -1.0546551 -0.14531732 1.1808761 1.2896893 -1.1226197 -0.39740008
1.2039618 0.95416594 -0.74394023 0.10513055 0.70979524 0.66537625 -0.837353 0.14860775
0.31448704 0.15928777 -0.8042903 0.3233152 0.58265483 -0.16272743 -0.27955055 0.17178099
