logs/promp_td3/FetchReacher-v0_85/best_model.npy (npy, 728 bytes, 1 tensors)

array f4 [50, 3]
00000000: 5003 93bd 61c4 25bd b17e ba3d a05d 87bd
00000010: d0de 05bd 8993 aa3d 1b79 75bd ee5e cebc
00000020: 9d96 963d 0b12 57bd f93a 9abc 33da 7e3d
00000030: e971 37bd d00b 6dbc e0e6 4b3d 47f1 1dbd
00000040: 0830 53bc 4883 153d edbc 10bd 01ba 70bc
00000050: a0a1 b83c 9f72 0dbd 302d a2bc c3fb 053c
00000060: 06ba d2bc 59be c9bc 4e23 afbb 7def da3c
00000070: 823f 4bbc a84a 67bc 6179 853d fffa 40bb
00000080: 4a06 d0bc 816e a33d c9d3 edba 6458 0fbd
00000090: 1a55 a83d 310f a4bb 97e4 2cbd 0d43 a03d
000000a0: 723c 20bc 7e40 46bd 32d1 8d3d a224 81bc
000000b0: a400 5cbd 9d4e 693d 9e1a b8bc c0cd 68bd
000000c0: e485 313d 0cbe f0bc 768f 6abd eb38 f43c
000000d0: cb49 14bd 42c4 62bd 56a6 903c 7229 2ebd
000000e0: bcf5 53bd 79ee fe3b 4933 44bd 9634 40bd
000000f0: 551a 153a 422a 55bd 3fd4 28bd e66b 84bb
00000100: b6a7 60bd c4b2 0ebd 4491 d3bb 87f7 66bd
00000110: 7d10 e5bc 90ef f0bb 5de1 68bd 5c5f aabc
00000120: a9aa f6bb b474 67bd 5164 5fbc 469a fabb
00000130: f8a8 63bd c014 e1bb 034a 03bc 1110 5ebd
00000140: 9bf0 76ba 5c94 0abc 23bb 56bd bb2b 763b
00000150: 9aa6 0abc b03f 4dbd 9934 e63b 440d efbb
00000160: 6209 41bd 610a 123c 2a5e 83bb a763 31bd
00000170: d787 1f3c 991a 343b 7a92 1cbd a2ba 253c
00000180: 932d 733c e691 f7bc 2fca 353c a723 fa3c
00000190: 517c 96bc 07c8 573c a0d1 2e3d 7945 17bc
000001a0: 9aae 6b3c a6a1 4b3d 3f9a 99bb 6df5 703c
000001b0: 5c36 563d 9c68 86bb fd03 733c a154 503d
000001c0: dd06 f3bb 1d31 743c 21b4 3c3d 1700 70bc
000001d0: 19ec 733c 1c70 213d 0468 cbbc d71c 763c
000001e0: 316e 063d df1a 13bd 0823 813c b5dd de3c
000001f0: f494 40bd 9e76 8c3c dac5 b53c 31fb 6fbd
00000200: 10e3 993c ace9 8c3c b1fa 90bd c58f a63c
00000210: 578c 423c ae93 aabd 96f1 b03c e1af c63b
00000220: 6ba1 c3bd 6b54 b83c b49a 6ab9 27de dabd
00000230: 7c88 bc3c c6c2 e1bb fb28 efbd 4da8 bd3c
00000240: 73df 61bc 0694 ffbd b0fb bb3c 6811 aabc
00000250: 0cc5 05be edcf b73c
-0.07178366 -0.040470485 0.09106196 -0.066096544 -0.032683194 0.08328921 -0.05992995 -0.02519175
0.07352946 -0.05250744 -0.018826948 0.06221981 -0.044786368 -0.014468148 0.049780726 -0.038560178
-0.0128898695 0.036502153 -0.035336424 -0.014692784 0.022538006 -0.03453314 -0.019796938 0.0081777
-0.025723469 -0.024626898 -0.005344785 0.026725525 -0.012405278 -0.0141169205 0.06517292 -0.002944648
-0.025393624 0.07980061 -0.0018144782 -0.034996405 0.08219357 -0.005006694 -0.042210188 0.07825289
-0.009780036 -0.04840135 0.069246665 -0.015764538 -0.05371155 0.056959737 -0.02247363 -0.056836843
0.04334058 -0.029387496 -0.05726572 0.029812297 -0.036203187 -0.055362947 0.01765744 -0.042519994
-0.051748022 0.007779893 -0.04790047 -0.04692515 0.00056878227 -0.052042253 -0.04121804 -0.004041183
-0.05484744 -0.034838453 -0.006456526 -0.056388404 -0.027961964 -0.007352777 -0.05685555 -0.020797424
-0.0075276685 -0.05650778 -0.013634757 -0.0076477854 -0.055581063 -0.0068689287 -0.008013251 -0.05421454
-0.0009420008 -0.008458223 -0.05242456 0.0037562686 -0.0084625725 -0.050109565 0.007025313 -0.0072952826
-0.04712809 0.008913607 -0.004009028 -0.043307927 0.009736977 0.0027481674 -0.03822563 0.0101152975
0.014842409 -0.030220937 0.011095568 0.030534578 -0.018369826 0.013170249 0.042680383 -0.009232872
0.01438489 0.049714707 -0.004687577 0.014706952 0.052297935 -0.004101826 0.014832494 0.05086196
-0.0074165897 0.014904288 0.04607022 -0.014648459 0.014887833 0.039413556 -0.024829872 0.015021524
0.03281993 -0.0359143 0.015763775 0.027205328 -0.047017053 0.017146405 0.02218907 -0.058589164
0.01878503 0.017201267 -0.070790656 0.020332227 0.01187428 -0.08328949 0.021599572 0.006063447
-0.095522724 0.022501191 -0.0002237361 -0.106869034 0.0230143 -0.006889674 -0.11677738 0.023151541
-0.013786185 -0.12479405 0.022947162 -0.020760253 -0.13063449 0.022438014
