logs/episodic_td3/dmcCheetahDense-v0_228/best_model.npy.npz (npz, 504 bytes, 1 tensors)

arr_0 f4 [10, 6]
-0.73950094 0.27759176 0.8737128 0.57839376 0.5012946 0.26889703 -1.0731285 0.57122844
-0.6663002 -0.093946874 -0.47654155 -0.87093127 -0.86133796 0.7131561 -0.55618894 -0.19184288
-0.11572533 -1.0246081 -0.097835384 -0.50429904 0.074088566 0.72048175 0.18809396 0.48824185
-0.27289677 -0.71436846 -0.540052 -0.070589505 -0.5972537 0.19716951 -0.33489928 0.9959767
-1.1920375 -0.93081295 -1.2408054 -1.2131988 -0.108506456 0.3375015 -1.038228 0.24626426
-0.76742244 -1.2064987 0.6255519 -0.15479009 -0.13196656 0.5270503 -0.6964608 -0.06987035
1.1697558 -0.79364586 0.8044826 0.21335278 1.3702738 0.62322485 0.6836399 -1.010623
0.9676249 0.25957897 1.4440594 1.084267
00000000: ef4f 3dbf 8220 8e3e a4ab 5f3f 9d11 143f
00000010: d854 003f dfac 893e 465c 89bf 073c 123f
00000020: a692 2abf 3867 c0bd 41fd f3be 5af5 5ebf
00000030: a580 5cbf 6691 363f 6662 0ebf 7672 44be
00000040: 6701 edbd 5c26 83bf eb5d c8bd be19 01bf
00000050: bfbb 973d 7e71 383f b49b 403e d6fa f93e
00000060: 20b9 8bbe dae0 36bf d940 0abf 3b91 90bd
00000070: 9ee5 18bf cee6 493e eb77 abbe 54f8 7e3f
00000080: af94 98bf c249 6ebf b6d2 9ebf 194a 9bbf
00000090: a238 debd ffcc ac3e a8e4 84bf b32c 7c3e
000000a0: cc75 44bf 8d6e 9abf 2b24 203f 4b81 1ebe
000000b0: 3e22 07be c5ec 063f 414b 32bf 3018 8fbd
000000c0: 8fba 953f 602c 4bbf 92f2 4d3f 2779 5a3e
000000d0: 2265 af3f aa8b 1f3f 0603 2f3f 185c 81bf
000000e0: 44b6 773f 89e7 843e f0d6 b83f 43c9 8a3f
