plots/data/episodic_td3/dmcCheetahDense-v0_333/best_model.npy.npz (npz, 744 bytes, 1 tensors)

arr_0 f4 [20, 6]
000000 cf 47 4a 3f 74 67 84 3f 6c aa 37 bf 71 9e 24 c0
       0.7901582 1.0344071 -0.7174442 -2.5721705
000010 8c 0c 86 bf f2 34 64 bf d9 5d 54 3f 57 30 8a 3f
       -1.0472579 -0.8914329 0.829557 1.0796002
000020 6a e4 3c bf 39 9c 26 c0 63 69 8a bf 89 75 8e bf
       -0.7378603 -2.603285 -1.0813411 -1.1129619
000030 c7 65 51 3f 7b 5d 91 3f 58 73 3d bf dd c7 26 c0
       0.81795925 1.1356653 -0.74004126 -2.6059487
000040 5f 55 8c bf a9 b2 9c bf e6 cb 0d 3f 05 11 88 3f
       -1.0963553 -1.2242023 0.5538925 1.0630194
000050 7e 62 21 bf ab 08 20 c0 33 8a 6d bf bf dc c1 bf
       -0.6304091 -2.500529 -0.92789 -1.5145491
000060 37 d7 0f bf 3a 57 6d 3f 2e 33 06 3f 1b 5e de bf
       -0.56187767 0.9271122 0.52421844 -1.7372469
000070 7c 86 9c 3e 23 c7 ba bf 63 08 83 bf d3 0e 16 3f
       0.30571353 -1.4592022 -1.0236934 0.5861637
000080 bd 3e b3 3f 40 70 c9 3d 31 e0 13 3f fe dd 08 bf
       1.4003521 0.09835863 0.57763964 -0.53463733
000090 bd 6e 87 bf ee 39 db 3e 9d 41 b3 3f 90 5d 31 3f
       -1.058067 0.42817634 1.4004399 0.6928339
0000a0 90 8a df 3e f3 e1 8d 3e b6 cb 45 bf ee 11 50 3e
       0.43660402 0.27711448 -0.77263963 0.2031934
0000b0 a1 82 aa 3f 75 a5 2d 3f ce 50 04 be fa af 65 3f
       1.3321115 0.6783059 -0.1292145 0.89721644
0000c0 f7 d4 c5 be 52 fd f1 be 2c c8 85 3f d4 08 df 3e
       -0.38639042 -0.4726358 1.0451713 0.43561423
0000d0 1f de 3f bf 33 d1 8b 3f fb e8 2d bf 9f fb c0 bf
       -0.74948305 1.0923218 -0.67933625 -1.5076789
0000e0 77 57 62 3e 0f 96 10 bd 1b 9c 6d bf 5a e3 72 3f
       0.22103678 -0.035299357 -0.92816323 0.9487816
0000f0 eb 9e 84 bf e9 03 d5 bf 61 1b b8 be 40 15 0c bf
       -1.0360998 -1.6641818 -0.35958388 -0.54719925
000100 67 97 5c bf d8 78 3d 3f 6e 14 87 bf 57 45 db bf
       -0.8616852 0.7401252 -1.055311 -1.7130536
000110 78 a1 b8 be 4a 33 4d bf ce b6 98 bf b6 32 8b 3e
       -0.3606069 -0.80156386 -1.1930788 0.27187127
000120 d0 56 3b bf 7b 48 d5 bf e4 5b bd be 82 24 4d bf
       -0.7317934 -1.6662744 -0.3698417 -0.8013383
000130 8e 8d 93 bf 87 de ac 3e d3 81 ec be 2e 54 a5 bf
       -1.1527574 0.33763525 -0.46192798 -1.2916315
000140 a9 20 8b be 36 0c 0f bf 37 b8 3e bf 80 e6 34 3f
       -0.27173355 -0.5587801 -0.7449984 0.70664215
000150 cd 84 1b bf 64 ef 00 bf ac c8 aa 3e b3 29 95 3e
       -0.6074951 -0.5036528 0.33356225 0.29133376
000160 24 87 0f 3e a9 80 8a 3f cf 27 16 be cb 6f 0a 3f
       0.14016396 1.0820514 -0.14663623 0.5407683
000170 ae aa 50 3f 26 22 05 40 3b 45 9e 3f 6c 81 a1 3f
       0.81510437 2.0802093 1.2364877 1.2617621
000180 fb ea 64 3f 62 8a 89 3f c4 47 03 3f 39 29 38 40
       0.8942105 1.0745356 0.5128138 2.877516
000190 04 cb da 3f 67 3c b5 3f e9 0d 85 3f 11 7e 5d 3f
       1.7093205 1.4159058 1.039487 0.8652049
0001a0 8c 78 da 3e d9 0f 40 40 97 86 be 3f c6 06 be 3f
       0.42670095 3.0009673 1.4884824 1.4845817
0001b0 6a 0d 80 3f 53 4d 35 3f b8 b2 f0 3e 4c 0b 40 40
       1.0004094 0.7082111 0.47011352 3.0006895
0001c0 f3 01 ab 3f 60 83 bf 3f 43 b2 6e 3f 10 73 26 3f
       1.335997 1.4961967 0.93240756 0.6501932
0001d0 02 87 07 3f 0e 3e 3e 40 9f 41 9a 3f d8 5e ae 3f
       0.5294038 2.9725375 1.2051276 1.3622694
