plots/data/episodic_td3/dmcWalkerDense-v0_5/best_model.npy.npz (npz, 744 bytes, 1 tensors)

arr_0 f4 [20, 6]
000000 3d 07 28 bf 41 07 3e 40 e8 34 a0 3f 7f 3a 38 40
       -0.65636045 2.9691927 1.2516146 2.8785703
000010 76 76 47 c0 f9 50 e0 bf d0 c8 74 bf b8 7d 44 40
       -3.1166053 -1.7524711 -0.95618916 3.0701733
000020 14 60 a6 3f 16 89 30 40 fc ad 4f c0 cb 12 f7 bf
       1.2998071 2.758367 -3.2449942 -1.930261
000030 8e 49 f6 bf de dd 29 40 77 09 cb 3f be 00 d2 3f
       -1.9241197 2.6541667 1.5862263 1.6406476
000040 aa f1 34 c0 75 84 c4 bf 7e b0 8e bf 46 95 7c 3f
       -2.82725 -1.5352923 -1.1147611 0.98665273
000050 48 5d 28 3f 4c 04 51 bf 2c 0e fa be 07 e6 02 3f
       0.65767336 -0.8164718 -0.48838937 0.51132244
000060 e3 ca 2d bf 44 49 41 bf a4 a6 03 be 15 b9 1e c0
       -0.67887706 -0.7550242 -0.12856537 -2.4800465
000070 8e c8 9a 3f 15 5d 2e 3f 56 d1 e9 bd b4 3b 9f bf
       1.2092454 0.6811078 -0.11416881 -1.2440095
000080 5e a1 1c bf 96 a0 29 c0 45 13 91 3f 82 0d 95 3e
       -0.61183727 -2.6504264 1.1334006 0.29111868
000090 7b 80 88 3f 78 38 99 bf 08 e8 d2 bf 8e f8 e7 bf
       1.0664209 -1.1970358 -1.647706 -1.8122728
0000a0 d7 87 2e 3f 5b c1 94 be a5 4f f8 3f a5 6b 5a bf
       0.68176025 -0.2905377 1.9399306 -0.853205
0000b0 4d df b3 bf 79 16 63 bf 39 fb 38 3f 02 b5 0e 3e
       -1.4052521 -0.88706166 0.72258335 0.13936237
0000c0 af c8 0d 40 42 bd 44 bf 18 86 94 be 54 27 57 be
       2.2153738 -0.76851285 -0.29008555 -0.21011096
0000d0 87 e3 f1 3e 6e ef e8 3e 2d a4 0c 40 49 dd 4e bf
       0.47243902 0.4549517 2.1975205 -0.80806404
0000e0 85 7b 9a be 6f 43 cd 3d f3 06 d4 3e 13 23 a5 3e
       -0.30172363 0.100226276 0.41411552 0.32253322
0000f0 3c 5c 89 3f 21 4a 13 bf c0 f6 bf be bc 08 93 3c
       1.0731273 -0.57534987 -0.37492943 0.0179485
000100 e4 a9 28 3f 08 80 4c bf 75 5f ba 3d 76 43 2d be
       0.6588423 -0.7988286 0.09100238 -0.16920266
000110 29 52 54 bf a1 77 e7 3e 4e 61 07 3f ea 00 40 bf
       -0.82937866 0.45208457 0.5288285 -0.75001395
000120 46 9a 89 be 46 88 e6 3d 7e 30 fd bd 29 7d 5a 3f
       -0.26875514 0.11256461 -0.12362765 0.8534723
000130 d7 96 73 3e a1 9c 3d be 2c ae 39 bf bc 94 bb bb
       0.2378801 -0.1851678 -0.7253139 -0.0057245176
000140 bf de 2b 3f df 6d 5b 3e f7 12 31 3e d1 ee 27 3e
       0.6713676 0.21428631 0.17292391 0.16399695
000150 51 94 11 bf 89 74 df be 59 f5 8f 3f a8 64 aa 3d
       -0.5686694 -0.43643597 1.1246749 0.0831998
000160 29 0f 1a be 02 fe 81 3e 7e 06 aa bd a8 de 50 bf
       -0.15044846 0.25389105 -0.083020195 -0.81589746
000170 c5 53 41 3f 26 aa d6 be e8 14 dc bd a4 59 a5 3c
       0.7551845 -0.41926688 -0.10746175 0.020184346
000180 ae 78 c1 bc 02 1b a2 bf e4 af 6d bd a0 3f 25 bf
       -0.023617115 -1.2664492 -0.05802907 -0.6455021
000190 45 3c e2 3e c9 3a 13 bf a6 71 93 3e 22 9e e3 bf
       0.44186607 -0.57511574 0.28797644 -1.7782633
0001a0 02 a1 4a bf 4e df 1c be 78 bc 5a 3f 91 82 58 bf
       -0.7915193 -0.15319559 0.8544383 -0.8457423
0001b0 5d 78 fd 3e 81 b9 ef bf c1 41 54 bf 33 dd 0e 3e
       0.49505892 -1.8728486 -0.8291283 0.13951568
0001c0 10 6e f3 3e 1f 36 5b bf 5b 84 e7 3e ed 06 e9 bf
       0.4754491 -0.8562946 0.45218167 -1.8205239
0001d0 f9 e5 6e bf 2b 65 cd 3d a5 47 fb 3e 6c f1 22 bf
       -0.9331966 0.10029062 0.49078098 -0.6364963
