logs/promp_td3/FetchReacher-v0_91/best_model.npy (npy, 728 bytes, 1 tensors)

array f4 [50, 3]
000000 31 73 6a 3c a4 f6 09 3c 0a 02 90 3d 7d 6c a4 b8
       0.01430969 0.00842062 0.07031639 -7.840337e-05
000010 c0 f5 46 bb 9f 98 8b 3d ca 29 51 bc 11 3c 80 bc
       -0.003035888 0.068162195 -0.012766311 -0.015653642
000020 b5 a5 81 3d 81 a2 aa bc 4e fd d4 bc f5 ff 63 3d
       0.06330434 -0.020829441 -0.025999691 0.05566402
000030 cb a2 c5 bc 8f 76 08 bd b1 1f 38 3d 23 1b bd bc
       -0.024125477 -0.03331619 0.0449521 -0.023084229
000040 6b 9d 1d bd 0e db fb 3c 00 53 9c bc de 69 30 bd
       -0.038480204 0.030744102 -0.019082546 -0.043069713
000050 fb 89 58 3c a0 1d 6c bc 17 02 45 bd 79 1f d8 bb
       0.013216491 -0.01441136 -0.048097696 -0.0065955487
000060 05 f0 37 bc 71 96 58 bd 2e e2 d8 bc 84 3f 2a bc
       -0.011226659 -0.052877847 -0.026475038 -0.01039112
000070 bb 02 64 bd b8 28 30 bd 77 22 2e bc f8 34 65 bd
       -0.055666666 -0.043007582 -0.010628334 -0.055958718
000080 da 44 5e bd 73 bb 29 bc ff 6d 5e bd 98 60 78 bd
       -0.05426488 -0.010359633 -0.05430412 -0.060638994
000090 37 4e 15 bc 24 21 51 bd 73 0c 81 bd f7 6a e9 bb
       -0.009112886 -0.051056996 -0.063012026 -0.007123347
0000a0 43 db 3d bd 87 ed 7d bd ae 75 9d bb 04 07 25 bd
       -0.046351682 -0.0619941 -0.0048052883 -0.040289894
0000b0 c4 f9 6d bd 1d 21 25 bb e4 41 07 bd ab 41 55 bd
       -0.058099523 -0.002519674 -0.033021823 -0.05206458
0000c0 cf 1f 06 ba f2 cc ca bc 5f 6a 38 bd b4 b4 89 3a
       -0.0005116434 -0.024755929 -0.04502332 0.0010506124
0000d0 14 30 81 bc 56 1e 1c bd 30 f5 04 3b fe 08 d4 bb
       -0.015769996 -0.038114868 0.0020287745 -0.0064707985
0000e0 e3 1c 02 bd e0 8c 17 3b 5f 37 28 3b 26 32 d2 bc
       -0.03176583 0.002312474 0.002566777 -0.025658678
0000f0 c2 d3 f5 3a 97 0f 2f 3c a8 b7 9d bc 94 1c 56 3a
       0.0018755125 0.010684869 -0.019252613 0.00081677106
000100 b4 c2 8d 3c 24 a7 47 bc f3 ee 33 ba 71 01 b4 3c
       0.017304756 -0.0121858455 -0.00068639143 0.021973344
000110 14 30 8f bb cb a5 24 bb 92 b4 c7 3c b8 1e 82 3b
       -0.004369745 -0.0025123234 0.024378095 0.003970947
000120 5e 1e 99 bb b6 44 c8 3c 9d 52 49 3c 17 d8 e3 bb
       -0.0046728095 0.024446826 0.012287763 -0.00695325
000130 fa ff b7 3c c3 a3 a1 3c 94 b4 08 bc a1 36 9b 3c
       0.022460926 0.019731408 -0.008343834 0.018946948
000140 88 9a cf 3c fe 98 04 bc f4 5a 6e 3c e8 e2 e9 3c
       0.02534224 -0.008093117 0.014548052 0.02855058
000150 43 b3 cf bb ef 36 1b 3c da e0 eb 3c 6c 78 6b bb
       -0.0063385083 0.009473546 0.028793741 -0.0035929931
000160 bf 07 67 3b 53 06 d0 3c 88 b4 09 ba eb 7e 55 bb
       0.003525242 0.02539364 -0.00052530365 -0.003257687
000170 84 44 9a 3c 77 34 2b 3b 7c 75 24 bc 17 9b 32 3c
       0.018831499 0.00261238 -0.010037776 0.010901234
000180 8c 70 cf 3b 2b d7 7f bc 3a 67 84 3b e0 83 32 3c
       0.0063305553 -0.015615265 0.004040626 0.010895699
000190 94 53 a2 bc 9f 68 5c b9 0e ba 81 3c 8e 3c bf bc
       -0.019815244 -0.0002101981 0.015835788 -0.023344304
0001a0 1a 11 0a bb 6b b5 a6 3c df 90 dc bc c2 c5 26 bb
       -0.0021067322 0.020350179 -0.026924549 -0.0025447463
0001b0 2f 31 c1 3c ba 57 fe bc f6 6b 13 bb c0 03 cb 3c
       0.023583023 -0.03104769 -0.002249477 0.024782062
0001c0 02 7f 13 bd ef ed de ba 9b 0a c0 3c 64 d4 2b bd
       -0.036009796 -0.0017008166 0.023442557 -0.0419506
0001d0 a5 08 a1 ba 93 2f 9f 3c 0f 1d 48 bd bd ee 8d ba
       -0.0012285901 0.019431865 -0.048855837 -0.0010828596
0001e0 6e ef 55 3c f5 9e 67 bd 38 90 c0 ba 61 6e a4 3b
       0.013057573 -0.056548078 -0.0014691418 0.005018041
0001f0 2e 80 84 bd 7c cf 26 bb f6 77 78 bb 59 36 95 bd
       -0.06469761 -0.002545326 -0.00379133 -0.072857566
000200 45 a2 90 bb 67 d3 4c bc 09 f4 a4 bd 12 d8 e8 bb
       -0.0044138753 -0.012501574 -0.080543585 -0.0071058357
000210 b9 83 a7 bc bc d4 b2 bd 85 57 2d bc 04 f6 de bc
       -0.020448552 -0.08731982 -0.010579948 -0.027216919
000220 03 25 be bd 5f 1a 71 bc 2e 83 05 bd 9c 75 c6 bd
       -0.09284403 -0.01471576 -0.032595806 -0.09690401
000230 9b 47 9e bc 2e 82 15 bd a1 8e cb bd 2d b1 c5 bc
       -0.019321254 -0.036501102 -0.09939314 -0.024132336
000240 65 6c 1f bd 6e 63 cd bd f0 24 ec bc d0 5d 23 bd
       -0.038921732 -0.1002873 -0.028826207 -0.03988439
000250 6d 07 cc bd de 53 07 bd
       -0.09962354 -0.033038966
