plots/data/promp/dmcCheetahDenseProMP-v0_4/best_model.npy (npy, 1088 bytes, 1 tensors)

array f8 [120]
000000 99 db da 6f f1 f9 ff 3f 32 41 9c 68 05 f7 ff 3f
       1.9985212678272772 1.9978078924505778
000010 55 4f 7d e8 49 ff ff 3f a8 74 df c1 5f 72 dc 3f
       1.9998263436909458 0.4444808381356986
000020 04 42 73 b2 02 eb e7 bf 7b d3 f6 a6 5a 4b ef bf
       -0.7474378095012644 -0.9779484997767293
000030 99 c1 eb 6e 90 7c fb 3f 18 cb 36 3d da 36 ee bf
       1.7179111798142002 -0.9441958613955164
000040 99 98 90 b3 25 f1 ff 3f aa 16 d7 be fa 09 fd 3f
       1.9963738455058204 1.8149363951392083
000050 01 00 00 00 00 00 00 40 2d 8e f9 7e c1 e6 ff 3f
       2.0000000000000004 1.9938368759111527
000060 63 16 a5 ef 65 fe ff bf 9b 49 ed 05 07 ee ff bf
       -1.999608932602677 -1.9956121665496542
000070 8e e3 88 6e 70 ef ff 3f 5b 78 dd 41 2d 75 ff 3f
       1.9959568326723658 1.9661076138359224
000080 6c de 45 79 20 f5 ff 3f 31 98 c4 7a df f1 ff 3f
       1.9973454224799765 1.9965510173438015
000090 6d 2b 53 d5 d2 fd ff bf a4 5d 63 ec 09 f6 ff bf
       -1.9994686444285563 -1.9975680574333206
0000a0 b0 29 d6 a5 2b d4 ce 3f 8d 3a 64 ad ea 72 ff 3f
       0.24084992978562303 1.9655558369737804
0000b0 3f 57 d2 c6 c9 f6 ff 3f 7b 5b 09 64 d9 e7 ff 3f
       1.9977510229559383 1.9941038043668573
0000c0 ba 08 0b b0 55 fe ff bf 57 b9 c6 9f 95 f3 ff bf
       -1.9995934368785542 -1.9969688645611166
0000d0 4c 9c e9 dc 49 83 fa bf 9a ad 04 f9 ca b1 ff 3f
       -1.657052863063444 1.9809064605022741
0000e0 e5 94 9e a1 3c f7 ff 3f ef 2e fa a4 23 e7 ff 3f
       1.9978605569133887 1.9939304775643298
0000f0 d5 d5 3b c9 55 13 f5 bf 60 e0 e5 97 42 fa ff bf
       -1.3172204838459625 -1.9985986646188607
000100 fb 5f 18 50 b2 00 fa bf c8 fe 6d e1 95 89 f9 bf
       -1.625170052406246 -1.596090202889103
000110 2b b2 74 66 aa 91 f5 3f d9 18 6d 9b d7 c3 ea 3f
       1.3480628969365493 0.8364065204302974
000120 b5 9d de 0c aa e9 ff 3f 3e 42 80 1b 64 6a d5 3f
       1.9945469382017624 0.3346185940327223
000130 25 34 33 d3 10 a7 fb bf 8a 61 f0 f5 05 e4 ff bf
       -1.7282875299454272 -1.9931697470657093
000140 48 d3 c8 fe 7b c1 e4 bf c2 d5 fe 27 ef 5c e4 3f
       -0.6486186958560234 0.63634450732814
000150 c6 1d c2 f8 de f0 ff 3f 7c e9 f2 67 8e fa ff 3f
       1.9963063923950002 1.998670965242666
000160 b7 f5 78 24 54 a7 e3 bf 4f 60 16 38 b6 74 f9 bf
       -0.614175864444113 -1.5909940901674593
000170 dd 9f be 11 80 34 e8 bf 85 78 62 d3 13 cc f1 bf
       -0.7564087244581931 -1.1123235947812031
000180 2d bd 8b bf 70 f0 ff 3f ba 4b 75 f1 2b 31 f1 3f
       1.9962012750873541 1.074504798122446
000190 89 1d 11 5b 03 85 cb 3f 0b 4f d8 ba 83 59 f8 bf
       0.21499673792480348 -1.5218541430121515
0001a0 64 2d 38 30 85 54 99 bf 92 37 38 d2 c4 c0 ef 3f
       -0.024736481731492246 0.9922813516475222
0001b0 c1 d6 b4 59 d6 39 fe 3f a2 1e 2e c7 10 dd ff bf
       1.8891204361110996 -1.9914710789179613
0001c0 1a d9 bf ef 3b 08 fd 3f d3 11 9d 78 90 c9 fd bf
       1.814510284920806 -1.8617100440470622
0001d0 3f 76 98 d9 47 6f ef 3f 63 f2 f3 96 fd 76 f8 3f
       0.9823340654290361 1.529050435695489
0001e0 6b a1 5a b1 c1 78 ad 3f db ba 8b 65 3c 40 e4 bf
       0.057561924838696786 -0.6328412993733211
0001f0 90 a9 a1 7f dd 37 ff 3f 1b 67 04 8f 7c 35 f2 3f
       1.9511389718632905 1.1380582415208156
000200 8a 82 b4 16 08 da d6 bf 8f 11 9e 9e 61 29 f9 3f
       -0.3570575925569207 1.5726028629297593
000210 07 96 da f9 f8 f5 ee bf 5b ef 4d 8e d2 6f fe bf
       -0.9675259475667993 -1.902300411106771
000220 b1 55 3e 4d 2a 99 fa 3f b6 9b 11 bd 33 d6 f7 3f
       1.6623938577007318 1.4897954354762368
000230 4b 11 4e 29 c5 75 fe 3f 89 0f 93 65 19 63 fa 3f
       1.9037524808382666 1.649194142127245
000240 31 66 05 8d af c6 fb 3f 19 c2 66 c9 5c e6 e6 3f
       1.7360072620998717 0.715620416032894
000250 8e 87 74 b9 27 a7 fe bf 59 85 c3 fb 54 7f fc bf
       -1.9158093685477726 -1.7810869059106464
000260 a0 ba e1 f3 82 28 f9 3f 31 6b 89 87 2b ba f3 bf
       1.5723905111914647 -1.2329516691595013
000270 a3 45 bc 66 cf b5 e7 3f a9 38 e2 13 96 2c fc bf
       0.7409436232139125 -1.7608853127199302
000280 2c 00 f4 0d 53 55 e6 3f 7c 1f d0 cc de 48 fc bf
       0.6979155800363563 -1.7677906036860511
000290 e4 41 44 57 d2 4b f8 3f bb 5d 8b 8b 12 60 f4 3f
       1.518511143574977 1.273455185981091
0002a0 fb d5 07 63 ee ec ec bf 42 fd a3 95 6a 59 c0 bf
       -0.9039222654525355 -0.12772877031964397
0002b0 1d 30 d5 ed 23 ea df 3f 0d 95 ac 84 8a 84 f6 bf
       0.49866579271179196 -1.4073586638053854
0002c0 80 3d 85 58 75 f0 ff bf 0d 07 01 e3 c7 60 f4 3f
       -1.9962056596594664 1.2736281268448153
0002d0 8f 8f 6c 43 83 b0 f7 3f 3b f5 8f c2 a3 9b f3 bf
       1.4805939325096664 -1.2254979705897557
0002e0 85 b7 0a 26 56 82 c0 3f d5 b7 38 4e 4f d1 d8 bf
       0.12897755486977416 -0.38777525557349907
0002f0 5c 0b ff 2f fb bb ff 3f 1b b2 98 e4 9f 78 e0 bf
       1.983393847928446 -0.5147246804022559
000300 fa 86 fd 5e 47 da f7 bf 60 da 6f 04 c1 32 ec 3f
       -1.49079072099306 0.8811955534609517
000310 2f 52 bd 9a 86 72 f7 3f 6e 76 60 ad ef 43 fa bf
       1.465460400058088 -1.6415859959155585
000320 c0 43 82 bd 82 aa f9 bf d4 19 98 56 3c 69 f0 3f
       -1.6041285898865993 1.0256923086723093
000330 5a e2 c5 af 61 7c f4 bf 54 ed 61 93 52 fc fc 3f
       -1.2803665987140875 1.8116021878366455
000340 69 b0 aa e3 13 c9 ff bf 77 f2 52 ac 74 22 dc bf
       -1.9865912335617628 -0.4396030123569185
000350 74 00 05 55 de 8e e2 bf 65 e4 20 7e 4e 07 de bf
       -0.5799400005853514 -0.4691959602092253
000360 7f 55 66 08 22 1e f5 bf c1 3d 72 33 76 36 e2 bf
       -1.3198566749682354 -0.5691481594857849
000370 5c 72 16 22 16 a1 dd bf 9b fc 7c 8e bf 63 eb 3f
       -0.46295693711161845 0.8559263022397262
000380 03 16 dd 81 d1 b9 f3 3f 0f 30 8b c9 ca 48 ed bf
       1.232865817336802 -0.915135759010356
000390 d7 c4 18 ad d0 7d fd 3f 64 a5 34 79 84 46 bd bf
       1.8432165872184691 -0.11435726126787454
0003a0 2a 40 85 5c 2c 46 fd 3f 09 2f f5 d5 b2 92 bf bf
       1.8296321500856814 -0.12333219264581542
0003b0 19 8a 4d 49 08 39 fd 3f d8 66 5a 2e fa 5a fb 3f
       1.8264239180940705 1.7097112475079737
